models/convNet.pt (torch_old, 461564 bytes, 8 tensors)

conv1.weight f4 [32, 1, 5, 5]
0	0x3e72cdd6	0.23711333
1	0xbd80c221	-0.06287027
2	0xbd315270	-0.04329151
3	0x3e80e048	0.25171113
4	0xbe6afe14	-0.22948486
5	0xbdeac65b	-0.114636146
6	0x3e02e1c0	0.1278143
7	0x3d3f4b19	0.046702478
8	0x3cbfb39b	0.023401072
9	0xbe8cb030	-0.2747817
10	0x3e3b5acb	0.18296354
11	0xbc7ae99b	-0.015314485
12	0x3c86b50c	0.016443752
13	0xbdb04831	-0.086075194
14	0xbe5382f5	-0.20655425
15	0x3e68edf4	0.22747022
16	0xbdc79574	-0.09745303
17	0x3e899230	0.26869345
18	0xbe3a6a3d	-0.18204589
19	0x3e544c18	0.20732152
20	0xbdc81c42	-0.09771015
21	0xbe0d7395	-0.13813622
22	0x3e08ec5c	0.13371414
23	0x3d737a72	0.059442945
24	0x3dde182d	0.10844455
25	0x3f09f99b	0.5389649
26	0x3e3a05c8	0.18166268
27	0x3eaccdb8	0.337507
28	0xbc01e28b	-0.007927547
29	0x3d0c7abe	0.034296744
30	0x3e9ee0c1	0.3103085
31	0xbed97a92	-0.42476326
32	0xbeb949c8	-0.36189103
33	0xbe88d931	-0.26728204
34	0x3e85a7ac	0.26104486
35	0xbee09cb7	-0.43869564
36	0xbf4c9780	-0.7991867
37	0xbf6ebc77	-0.93256325
38	0xbea9990a	-0.33124572
39	0xbe4ad48c	-0.19807643
40	0xbee13998	-0.43989253
41	0xbf3713fe	-0.7151488
42	0xbf2ee897	-0.68323654
43	0xbf87b23b	-1.0601267
44	0xbe942fd3	-0.28942737
45	0xbdd36873	-0.103226565
46	0xbf534212	-0.8252269
47	0xbf339bc5	-0.7015956
48	0xbf263ef0	-0.64939785
49	0x3ed86936	0.4226777
50	0xbe6a9ae6	-0.22910652
51	0xbd4cebe6	-0.050029658
52	0x3e5a7abb	0.2133588
53	0x3e0f8de5	0.14018972
54	0x3df410fd	0.11917303
55	0xbe206592	-0.15663746
56	0xbc109538	-0.008824639
57	0xbcbfd446	-0.02341665
58	0xbdc92bf7	-0.09822839
59	0x3c2c8952	0.010530787
60	0x3e8c8ad4	0.27449667
61	0xbe565ef7	-0.20934664
62	0xbeb83913	-0.35981044
63	0x3e88d342	0.26723677
64	0x3e42f174	0.1903742
65	0x3e0d6ceb	0.1381108
66	0x3d969fa0	0.07354665
67	0xbeca6143	-0.3952733
68	0x3e4405a5	0.19142778
69	0xbd5d9222	-0.05409444
70	0x3e4da4c3	0.20082383
71	0x3e56787a	0.20944396
72	0xbe499555	-0.19685872
73	0xbdacf979	-0.08446021
74	0xbe1dbbc4	-0.15403658
75	0xbecd3069	-0.40075997
76	0xbebf9c95	-0.3742415
77	0xbe6ec4e6	-0.23317298
78	0xbeae83e0	-0.34084988
79	0x3e86b80b	0.2631229
80	0xbe887b2a	-0.26656467
81	0x3e4ce2dc	0.20008415
82	0xbc06025c	-0.008179273
83	0x3ea4b3ec	0.3216852
84	0xbd287f54	-0.041137055
85	0x3e974fe2	0.29553133
86	0x3e2c9605	0.16854103
87	0x3e9ce112	0.30640465
88	0x3da35921	0.07975984
89	0xbe9552f4	-0.2916485
90	0xbb8c9216	-0.0042898757
91	0xbe317716	-0.17330584
92	0xbe03c426	-0.12867793
93	0x3e84211f	0.2580652
94	0xbe30707f	-0.17230414
95	0x3ebabdc6	0.3647291
96	0x3cff1e45	0.031142363
97	0x3e387fb5	0.18017466
98	0xbe420d90	-0.18950486
99	0x3e10efba	0.14153948
100	0xbe92854c	-0.28617322
101	0xbefb0efa	-0.49034864
102	0xbee93217	-0.45546028
103	0xbec87102	-0.39148718
104	0xbf0e38e6	-0.5555557
105	0x3e1f66d5	0.15566571
106	0xbebb0137	-0.36524364
107	0xbf073f99	-0.5283142
108	0xbeaf04a0	-0.34183216
109	0xbf281e39	-0.65671116
110	0x3ec88d43	0.39170274
111	0x3e9e3505	0.30899826
112	0xbee52726	-0.4475643
113	0xbe8fb642	-0.2806874
114	0xbe8e38f2	-0.2777782
115	0x3e564838	0.20925987
116	0x3eeb291b	0.45929798
117	0x3db4cff6	0.08828728
118	0xbe9b06f1	-0.30278733
119	0x3db4ff87	0.088378005
120	0xbeacef1f	-0.33776185
121	0x3eaac3a7	0.33352396
122	0x3ed84e22	0.4224711
123	0xbccb1dbd	-0.024794454
124	0xbe305dfb	-0.1722335
125	0xbc9ae17d	-0.01890635
126	0xbc86378d	-0.01638391
127	0xbeb112e0	-0.34584713
128	0x3d6b3b07	0.05742934
129	0x3e03e1ea	0.12879148
130	0x3d6dd46f	0.05806392
131	0x3d56b40e	0.052417807
132	0xbead16d7	-0.33806488
133	0x3d8b039c	0.06787798
134	0x3e79fe17	0.24413334
135	0x3da6c4db	0.08143016
136	0x3df81c1e	0.12114738
137	0xbde73728	-0.11289817
138	0x3e969eec	0.29418123
139	0x3e681d14	0.22667342
140	0x3e2beb92	0.16789082
141	0xbe22d56b	-0.15901725
142	0xbdd6b5e0	-0.10483909
143	0xbcfb6a1e	-0.030690249
144	0xbd259d07	-0.040432956
145	0x3e3593ee	0.17732212
146	0x3e5108ce	0.20413515
147	0xbe109270	-0.14118361
148	0xbeacc7d6	-0.33746213
149	0x3e6a86b8	0.22902954
150	0xbd3c6d61	-0.04600275
151	0x3e4098e4	0.18808323
152	0xbdf94ed8	-0.121732414
153	0x3e2f3df7	0.17113481
154	0x3e4095fb	0.18807213
155	0x3c8dc505	0.01730586
156	0x3e0cdfe8	0.13757288
157	0xbe944b4e	-0.28963703
158	0xbc59461a	-0.013261342
159	0xbda902dd	-0.08252499
160	0x3e2a9454	0.16658145
161	0x3da5a573	0.080881976
162	0x3db37137	0.087618284
163	0x3ba45bfd	0.0050158487
164	0xbe9dab61	-0.30794814
165	0x3e0953b2	0.13410833
166	0xbe8751ea	-0.26429683
167	0xbe910bf3	-0.2832943
168	0x3e9cb2cc	0.3060516
169	0x3e58e660	0.21181631
170	0xbd456dde	-0.04820048
171	0x3e62264a	0.22084919
172	0xbed11b00	-0.40840912
173	0x3d3aa156	0.04556402
174	0x3dfd4e25	0.123684205
175	0x3cb3657f	0.021898983
176	0xbe524c65	-0.20536955
177	0x3e23bd5f	0.15990208
178	0x3e5dac64	0.21647793
179	0xbe2479f3	-0.16062145
180	0x3b6c62e5	0.0036069688
181	0xbdedc151	-0.11609138
182	0x3d86167a	0.06547256
183	0x3e719a88	0.23594105
184	0xbb936567	-0.004498172
185	0xbea1aeab	-0.31578574
186	0xbde6124c	-0.112339586
187	0xbd6efb3f	-0.058345076
188	0x3dcc32bc	0.09970614
189	0xbcb72d81	-0.022360565
190	0x3dadf30e	0.08493625
191	0xbe590312	-0.21192577
192	0xbe8928d8	-0.26788974
193	0x3e149551	0.14510085
194	0x3e316f5a	0.17327634
195	0xbe0e3076	-0.13885674
196	0x3de5d389	0.11221988
197	0x3cc13db0	0.023588985
198	0x3e58a383	0.21156125
199	0x3e08270f	0.1329615
200	0x3ec1a9c5	0.37824836
201	0x3ed6edd7	0.41978332
202	0x3c7c8168	0.015411712
203	0xbe3d04c3	-0.18458848
204	0xbdb04c47	-0.08608299
205	0x3d39e158	0.04538092
206	0x3ea6196c	0.3244127
207	0xbd964e9c	-0.07339212
208	0xbe06ffc3	-0.13183503
209	0x3ceafe61	0.02868575
210	0xbed734d5	-0.42032495
211	0xbf1148b1	-0.56751543
212	0xbe9a67d6	-0.30157346
213	0x3e847d80	0.25877
214	0x3e225dec	0.15856141
215	0xbe035a0d	-0.1282732
216	0xbe08cd53	-0.13359575
217	0x3e31900a	0.17340103
218	0xbe20a960	-0.15689611
219	0xbe5f1757	-0.21786247
220	0x3e5ff8d1	0.2187226
221	0xbd51917f	-0.051164147
222	0xbe19ea71	-0.15030839
223	0x3e9413fd	0.289215
224	0x3ea4d8af	0.32196566
225	0x3e1e782d	0.15475531
226	0x3e148d79	0.14507093
227	0xbe153942	-0.14572623
228	0x3e572e9f	0.21013878
229	0xbe93fe9c	-0.2890519
230	0xbe16ca51	-0.14725615
231	0xbe443200	-0.19159698
232	0x3d32ebef	0.043682035
233	0x3e9d8ea8	0.307729
234	0xbda4c7a0	-0.08045888
235	0x3e957072	0.2918735
236	0x3dacc243	0.0843549
237	0xbe42da32	-0.19028547
238	0xbe7a5c8b	-0.24449365
239	0xbe9adba1	-0.3024569
240	0xbe5ed213	-0.21759824
241	0x3eab05e8	0.33402944
242	0x3e476ce3	0.1947513
243	0xbe2cb30c	-0.16865176
244	0x3e1d170d	0.15340824
245	0x3e5bf70d	0.21480961
246	0xbe237f09	-0.15966429
247	0x3e65f7ab	0.22457759
248	0xbe6c5dd1	-0.23082663
249	0xbe8b246b	-0.27176222
250	0x3bcef79a	0.0063161375
251	0x3c5283df	0.012848823
252	0x3e1da0f2	0.15393427
253	0x3e1ecfb3	0.15508918
254	0x3dfada2b	0.122486435
255	0x3df36ca3	0.11885955

conv1.bias f4 [32]
0	0xbdceca84	-0.100972205
1	0x3eb06a06	0.3445589
2	0x3b216da5	0.0024632004
3	0x3b5fc4da	0.0034144432
4	0x3e12e082	0.14343455
5	0xbd972d65	-0.07381705
6	0xbd2c8934	-0.042123035
7	0x3e07abd5	0.13249142
8	0x3c08ab75	0.00834166
9	0x3e803e6f	0.25047633
10	0x3e2a97d2	0.16659477
11	0x3e735dda	0.2376627
12	0x3becac02	0.0072226534
13	0x3c06f0e4	0.008236144
14	0xbe52836e	-0.20557949
15	0xbcbb780f	-0.022884397
16	0xbbcc6003	-0.0062370314
17	0xbe13ab5f	-0.14420842
18	0x3d2a9ab3	0.04165144
19	0xbd45f70b	-0.0483313
20	0xbcc73961	-0.024319353
21	0x3ea15b21	0.31514838
22	0x3e1570d3	0.1459382
23	0x3bb8517c	0.005624948
24	0x3e98bb2b	0.29830298
25	0x3a5e403e	0.0008478201
26	0xbc2f8bfa	-0.010714525
27	0x3e60406e	0.21899578
28	0xbd0a4503	-0.03375722
29	0x3db9e8e1	0.09077621
30	0x3e5db842	0.2165232
31	0xbc5c0e6d	-0.013431174

conv2.weight f4 [64, 32, 5, 5]
0	0x3ccb3ec3	0.0248102
1	0x3d95389b	0.07286187
2	0x3e4c7fd6	0.1997064
3	0x3e0c591f	0.13705872
4	0xbed55bf6	-0.41671723
5	0x3de951d5	0.11392561
6	0x3ca6ec3b	0.020376315
7	0x3d8463b5	0.0646433
8	0x3d9d5dec	0.0768393
9	0xbd669dce	-0.056302838
10	0xbc6f39b4	-0.01460116
11	0x3d52eae6	0.051493548
12	0x3d84c8b4	0.064835936
13	0x3e0a913f	0.1353197
14	0x3d0b0daa	0.033948578
15	0x3da138c8	0.07872158
16	0x3d7f8f9c	0.062392816
17	0xbd949f1f	-0.072569124
18	0x3e725bc8	0.23667824
19	0x3d114765	0.035468478
20	0x3d151f3c	0.03640674
21	0xbe56110b	-0.20904939
22	0x3e154be9	0.14579739
23	0x3d82a4b9	0.063790746
24	0x3c96a3f8	0.018388733
25	0x3d68eab2	0.056864448
26	0xbe3da47f	-0.18519782
27	0xbe0d2201	-0.13782503
28	0xbe6d4b29	-0.23173203
29	0xbcef207c	-0.029190294
30	0x3d908572	0.07056703
31	0x3d8a862e	0.06763874
32	0x3e18986c	0.14901894
33	0xbdf9affb	-0.12191769
34	0xbe2fee5f	-0.17180775
35	0x3c2e0316	0.010620853
36	0xbe464f1c	-0.19366115
37	0xbd55b7f4	-0.052177384
38	0x3d98869e	0.07447551
39	0xbd5e9e24	-0.054350033
40	0x3dca0cdf	0.09865736
41	0xbd3af5f9	-0.045644734
42	0xbd3b58a2	-0.045738824
43	0x3af15c55	0.0018414358
44	0xbd9114d5	-0.070840515
45	0xbdee46ea	-0.116346195
46	0x3cbbb702	0.022914413
47	0x3e2537ea	0.16134611
48	0x3dff3299	0.124608226
49	0x3daaa065	0.08331374
50	0x3e095f58	0.13415277
51	0xbe9e0ff0	-0.30871534
52	0xbd81068a	-0.06300075
53	0x3b99e6be	0.004696696
54	0x3e038442	0.12843421
55	0x3dff26a9	0.12458546
56	0x3eb02fe1	0.3441153
57	0x3dc569c4	0.09639314
58	0xbe612d50	-0.21989942
59	0xbe21a578	-0.15785778
60	0xbc3b33fc	-0.011425968
61	0x3e353a05	0.17697914
62	0x3ce4ff6d	0.027953828
63	0x3e1a1074	0.15045339
64	0xbeac3159	-0.336314
65	0x3dfbfaf0	0.12303722
66	0x3c49769f	0.012296348
67	0x3df5173e	0.11967324
68	0x3dcc9c89	0.09990794
69	0xbda334db	-0.07969066
70	0x3e078991	0.13236071
71	0x3d7449b2	0.059640594
72	0x3be40df1	0.0069596698
73	0x3e06df48	0.13171113
74	0xbebac658	-0.3647945
75	0xbb9f8669	-0.004868318
76	0xbc3e4299	-0.011612558
77	0xbe1bfac2	-0.15232375
78	0xbe215197	-0.1575378
79	0xbd582a23	-0.05277456
80	0xbe9eef13	-0.31041774
81	0x3d5a3378	0.05327174
82	0xbb61b469	-0.0034439808
83	0xbd8aefcd	-0.067840196
84	0xbd74c1cf	-0.059755143
85	0x3f0e2b4f	0.55534834
86	0x3ed74f86	0.4205286
87	0xbd0f7e9c	-0.035032853
88	0x3d12e131	0.03585929
89	0xbe4883c9	-0.19581522
90	0xbcfd8c4f	-0.030950693
91	0xbc39667c	-0.011315938
92	0x3d7b55ac	0.061361
93	0xbca44fa7	-0.020057512
94	0x3d3a8455	0.045536358
95	0x3eb47798	0.35247493
96	0x3e21c9bc	0.15799612
97	0xbdd27066	-0.102753446
98	0xbdf08f1a	-0.117460445
99	0xbdd6c240	-0.10486269
100	0x3c90bfcc	0.01766958
101	0xbe316f25	-0.17327555
102	0xbdad73d1	-0.08469356
103	0x3e2fa3ab	0.17152278
104	0x3e125267	0.14289246
105	0x3eb6c83c	0.35699642
106	0x3cbcf01b	0.02306371
107	0xbe90a64b	-0.2825187
108	0xbc2d261d	-0.010568169
109	0x3ded07ed	0.11573777
110	0x3d725618	0.059164137
111	0x3e088fc1	0.13336088
112	0xbe460606	-0.19338235
113	0xbe1344cb	-0.14381711
114	0xbe01eb4e	-0.12687418
115	0xbdd4a986	-0.103838965
116	0xbcc4e2bc	-0.024033897
117	0x3dc0fd4a	0.09423311
118	0x3dec37d8	0.11534089
119	0xbd31b815	-0.043388445
120	0x3d8fcdb8	0.070216596
121	0xbda09060	-0.07840037
122	0xbe8ca390	-0.27468538
123	0x3d5e9a0c	0.05434613
124	0xbd6c7351	-0.05772716
125	0x3d4eeb89	0.050517593
126	0xbddccfac	-0.10781798
127	0xbd01a45d	-0.03165089
128	0xbd63105a	-0.055435516
129	0xbd342a36	-0.043985568
130	0x3ceb2220	0.028702796
131	0xbe0924f5	-0.13393004
132	0xbc90f4a3	-0.017694777
133	0x3d35a44d	0.044346143
134	0xbca7f1b8	-0.020501003
135	0xbd4e4b10	-0.050364554
136	0xbd19be2c	-0.037534878
137	0xbcb8de7a	-0.022567023
138	0xbbc939f0	-0.00614094
139	0xbdb696a6	-0.08915453
140	0xbdfe108e	-0.12405501
141	0xbdf8cd13	-0.1214849
142	0x3d96aef3	0.07357588
143	0x3d31d6ed	0.04341786
144	0xbd96a626	-0.07355909
145	0x3abfd6b3	0.0014636129
146	0xbd132142	-0.03592039
147	0xbd339ea1	-0.043852452
148	0x3bc7e6e7	0.0061005238
149	0xbe392f16	-0.18084368
150	0x3deb3d25	0.11486272
151	0xbd3b9b30	-0.045802295
152	0xbd4d3b6a	-0.05010549
153	0xbd817cfa	-0.063226655
154	0x3b7849fa	0.003788589
155	0xbc4eaf22	-0.012614997
156	0xbc044fca	-0.008075664
157	0x3d13567a	0.035971142
158	0x3e363cd5	0.17796643
159	0x3d169dd2	0.036771603
160	0x3dfe4f8c	0.12417516
161	0xbd36bf56	-0.044616066
162	0x3d8dae7e	0.06918047
163	0x3d43efff	0.0478363
164	0xbe0c2600	-0.13686371
165	0x3c1189e5	0.008882974
166	0x3ca6f62c	0.020381056
167	0x3e1f1891	0.15536715
168	0x3d178493	0.036991667
169	0xbc596b3a	-0.013270194
170	0xbc8e30b0	-0.0173572
171	0xbd54d796	-0.05196341
172	0xbdfd5451	-0.12369598
173	0x3e0c0c78	0.13676631
174	0xbe1aa176	-0.15100655
175	0xbd113917	-0.035454836
176	0xbd2d905a	-0.042373993
177	0x3d891cf5	0.06694976
178	0xbcca74e3	-0.024713939
179	0xbcd5fb09	-0.02612068
180	0xbd14da1b	-0.036340814
181	0x3d5064ff	0.050877567
182	0x3d9510bf	0.07278585
183	0x3c9997f1	0.01874921
184	0xbd00fb30	-0.03148955
185	0xbb3ce441	-0.0028822573
186	0xbcfb90e4	-0.030708738
187	0xbbb1ae8e	-0.00542242
188	0x3cf3c9ec	0.02975937
189	0x3d9c6689	0.076367445
190	0x3c37b174	0.011211742
191	0x3dcf4c36	0.10121958
192	0xbd60efef	-0.05491632
193	0xbb33f09e	-0.0027456651
194	0x3d93d29c	0.07217905
195	0x3d94f9a5	0.072741784
196	0x3c026e1d	0.007960823
197	0x3d9909f9	0.07472605
198	0x3cebfbdc	0.02880662
199	0x3cde4833	0.027134037
200	0x3da5588c	0.080735296
201	0xbe20035b	-0.1562628
202	0xbdb4873e	-0.08814858
203	0xbd54b9be	-0.05193495
204	0xbec1ec8d	-0.37875786
205	0x3e913561	0.28361037
206	0x3e10aee4	0.14129215
207	0x3dc1c821	0.09462
208	0xbc9364cc	-0.0179924
209	0xbe7f2193	-0.24915151
210	0x3d2956dc	0.0413426
211	0xbe758150	-0.2397511
212	0xbd4514d8	-0.04811558
213	0xbe2ef957	-0.17087303
214	0xbe24d6a8	-0.1609751
215	0x3eb56fed	0.35436955
216	0x3e0f2342	0.13978294
217	0x3d79f473	0.06102414
218	0xbd7d4c62	-0.061840422
219	0xbe8535f4	-0.26017725
220	0xbe85c27b	-0.2612494
221	0xbc5b5aab	-0.013388316
222	0x3d974db2	0.07387866
223	0x3e648dbf	0.22319697
224	0x3d9c5244	0.076328784
225	0x3d90384a	0.07041986
226	0xbd7ffd00	-0.06249714
227	0xbd4b3fb1	-0.049621288
228	0x3deec004	0.11657718
229	0xbba0f94b	-0.0049125305
230	0x3d963916	0.07335107
231	0xbd06d4f0	-0.032917917
232	0xbd06ab96	-0.03287848
233	0x3a15f1c4	0.0005719925
234	0x3dbdfca7	0.09276705
235	0xbd8e7939	-0.06956715
236	0xbb3e3f7e	-0.0029029544
237	0xbd0fc255	-0.03509744
238	0xbd0d2d99	-0.034467313
239	0x3d519a2a	0.051172413
240	0x3d9fb224	0.077976495
241	0x3da5842a	0.08081849
242	0xbcb807a7	-0.022464586
243	0x3e423f30	0.18969417
244	0x3dd2da80	0.10295582
245	0x3dbca74c	0.09211597
246	0xbe3c401b	-0.1838383
247	0xbca086fa	-0.019595612
248	0x3ddcf520	0.107889414
249	0xbdc2984c	-0.095017046
250	0x3d69242d	0.056919266
251	0x3d2c21cc	0.04202442
252	0xbd71d5ce	-0.05904179
253	0xbdbe8f06	-0.09304623
254	0xbd716a99	-0.05893955
255	0xba1649af	-0.00057330256

conv2.bias f4 [64]
0	0xbd84b15d	-0.06479142
1	0xbbcf5c0d	-0.006328112
2	0x3d957a6c	0.07298741
3	0xbc602698	-0.0136810765
4	0x3c79c0e2	0.015243741
5	0xb9c8c13a	-0.00038290938
6	0x3d5791f5	0.05262943
7	0x3cbe1588	0.023203626
8	0x3ca229d3	0.019795334
9	0xbd028968	-0.031869322
10	0xbd8a9a79	-0.067677446
11	0x3b2bcc98	0.0026214477
12	0x3d8c304c	0.068451494
13	0x3c60bed9	0.013717377
14	0x3d604fda	0.054763652
15	0x3db8391a	0.08995266
16	0xbcda4475	-0.026643971
17	0xbdb187d3	-0.086684845
18	0x3d9c6822	0.07637049
19	0x3d5cdc7f	0.05392122
20	0x3dad626d	0.08466039
21	0x3da8790f	0.08226215
22	0x3da59a70	0.08086097
23	0x3d1eeb9a	0.038798906
24	0xbc416fb5	-0.011806418
25	0x3ce506a7	0.027957274
26	0xbde129bc	-0.10994288
27	0xbd3fb2d4	-0.046801403
28	0x3dbea47b	0.09308716
29	0x3d244c9e	0.04011213
30	0x3bafcf0a	0.005365257
31	0xbdd880f8	-0.10571474
32	0xbd81d514	-0.063394696
33	0x3c9a7564	0.018854804
34	0x3dd956ae	0.10612236
35	0x3d31b824	0.0433885
36	0xbca0d9bf	-0.01963508
37	0xbdbb2e1d	-0.09139655
38	0x3ca5d0ad	0.020241106
39	0x3cff82d9	0.031190323
40	0xbd48982c	-0.048973247
41	0x3d0f51a5	0.03498997
42	0xbbc00a72	-0.00586062
43	0xbc37cd8f	-0.011218443
44	0x3d33d2d9	0.043902252
45	0xbde127dc	-0.10993931
46	0xbd641648	-0.05568531
47	0x3e088046	0.13330182
48	0xbdca42d9	-0.098760314
49	0xbc1a6753	-0.0094240485
50	0xbd91d9b4	-0.07121602
51	0xbd634908	-0.05548957
52	0xbd7be152	-0.06149418
53	0x3c87360a	0.01650526
54	0x3b94a13d	0.0045358227
55	0x3dad69e9	0.084674664
56	0x3d570484	0.05249454
57	0xbd8097d2	-0.062789574
58	0xbcd41343	-0.025888091
59	0xbc2fa855	-0.010721286
60	0xbd82457b	-0.063609086
61	0x3e193dbf	0.1496496
62	0xbbdd115f	-0.0067464556
63	0x3dad351e	0.08457397

emb.weight f4 [20, 3136]
0	0x3d668a0b	0.05628399
1	0x3d399867	0.045311358
2	0x3d576889	0.052589927
3	0x3da92338	0.082586706
4	0x3c9ed095	0.019386569
5	0xbb647f19	-0.0034865795
6	0xbd4c9802	-0.049949653
7	0xbd76eafd	-0.060282696
8	0x3cb95c6d	0.02262708
9	0x3c61817e	0.0137637835
10	0x3dae7159	0.08517713
11	0x3e09c8b9	0.13455476
12	0xbd8f4f83	-0.069975875
13	0xbcb4cd0b	-0.022070428
14	0x3da29d1a	0.07940121
15	0x3dfb4d25	0.122705735
16	0xbd6910ac	-0.056900665
17	0xbba90721	-0.0051583205
18	0xbc605b4e	-0.013693644
19	0xbda26839	-0.07930035
20	0xbe09eeeb	-0.13470046
21	0xbb54008c	-0.0032348959
22	0xbd094e10	-0.03352171
23	0xbda9cdcf	-0.08291208
24	0xbe17905e	-0.14801165
25	0xbbd5ca04	-0.0065243263
26	0xbd0c28a4	-0.034218445
27	0x3dc2ae50	0.09505904
28	0xbcdbc5c3	-0.026827699
29	0x3db472f0	0.08810985
30	0x3c579a76	0.013159385
31	0xbd751698	-0.059836
32	0x3dbd3763	0.0923908
33	0x3c0ff446	0.008786267
34	0xbbd22042	-0.006412537
35	0xbcf2806f	-0.029602258
36	0xbc504ee5	-0.012714122
37	0xbd9685db	-0.0734975
38	0xbd72849b	-0.059208494
39	0x3cc06702	0.023486618
40	0x3c15b2c0	0.009136856
41	0xbcf0f56a	-0.029413898
42	0x3df72d12	0.12069143
43	0xbd05099f	-0.03247988
44	0xbd1ee98b	-0.038796943
45	0xbc74277f	-0.014901995
46	0xbbbe85ce	-0.0058142906
47	0xbde2dab8	-0.110768735
48	0xbc613f08	-0.013747938
49	0x3bde34dc	0.0067812037
50	0x3b6ad8c8	0.0035834778
51	0x3c68d22a	0.014210263
52	0xbbc37f16	-0.0059660776
53	0x3bc744dd	0.006081207
54	0x3d556050	0.052093804
55	0xbd0d1fa6	-0.03445401
56	0x3ddfe36d	0.1093205
57	0xbc4f6cf5	-0.012660255
58	0xbcd1bab4	-0.025601722
59	0xbd9709f5	-0.07374946
60	0xbc9baaae	-0.019002285
61	0x3d467869	0.048454676
62	0x3d926fb9	0.07150216
63	0xbbd7adaa	-0.0065819817
64	0xbdb744e4	-0.08948687
65	0x3c6d7b3b	0.014494712
66	0x3bbf4907	0.005837563
67	0x3d40676a	0.046973623
68	0xbcf59727	-0.029979302
69	0x3d834d22	0.06411196
70	0xbd8b5234	-0.068027884
71	0xbde30587	-0.11085039
72	0xbc40f8bf	-0.011778056
73	0xbd01e809	-0.031715427
74	0xbd361a4f	-0.044458684
75	0xbc21826f	-0.009857758
76	0x3cbc7ba4	0.023008175
77	0xbd9b1a4c	-0.07573375
78	0xbd9b6083	-0.075867675
79	0x3c9c99cf	0.01911631
80	0x3d47d26e	0.048784666
81	0x3dc917b9	0.09818978
82	0x3d800f55	0.06252924
83	0x3da65925	0.08122472
84	0x3ca47f2b	0.02008017
85	0x3c63398d	0.013868702
86	0xbdb53011	-0.088470586
87	0x3d47c71b	0.048773866
88	0xbd324803	-0.043525707
89	0xbba9aa59	-0.0051777777
90	0x3db072dc	0.08615658
91	0x3d2303b4	0.039798453
92	0x3d2e1809	0.04250339
93	0x3dab059c	0.08350679
94	0xbd234880	-0.039864063
95	0x3cc03ac0	0.023465514
96	0xbc0d8a42	-0.00863892
97	0xbe8ad652	-0.27116638
98	0x3e052c42	0.13005164
99	0x3d57e8fe	0.052712433
100	0xba37f853	-0.0007017899
101	0x3d475762	0.04866732
102	0x3d13a5f5	0.03604694
103	0xbc843248	-0.016137257
104	0xbe06111c	-0.13092464
105	0x3dbe8e09	0.09304435
106	0x3c58faea	0.013243416
107	0x3d1245b0	0.03571099
108	0x3cec89b8	0.028874263
109	0x3d1b6877	0.037941422
110	0x3cadc289	0.021210926
111	0x3cd77fa8	0.026305988
112	0xbdbbcc8f	-0.09169876
113	0x3dcc8104	0.09985545
114	0xbddd9742	-0.10819866
115	0x3ac802d0	0.0015259627
116	0x3cd4ea84	0.025990732
117	0xbc4ce24a	-0.012505123
118	0x3b91c84b	0.0044489256
119	0xbd525344	-0.05134894
120	0xbd6e1799	-0.058127973
121	0xbdc53399	-0.09628982
122	0xbd4033af	-0.04692429
123	0x3d846190	0.06463921
124	0x3cca9f29	0.024734097
125	0x3cb7eb11	0.022450956
126	0xbb4d059f	-0.0031283868
127	0xbcbb7721	-0.022883954
128	0xbe047e5d	-0.12938829
129	0x3c002a07	0.00782252
130	0xbd0e5939	-0.034753058
131	0xbcc4a6aa	-0.024005253
132	0x3d44fe50	0.048094094
133	0xbcc11d97	-0.02357368
134	0x3da22a57	0.07918232
135	0xbe07361f	-0.1320424
136	0x3da87825	0.08226041
137	0x3c33ceea	0.010974625
138	0xbc0b7a9b	-0.008513118
139	0xbd20271b	-0.039099794
140	0x3c94f1ef	0.01818177
141	0x3d21e7a0	0.039527535
142	0xbbdd2c3c	-0.006749658
143	0x3c6e740a	0.014554033
144	0x3d90f352	0.0707766
145	0x3d0e1128	0.03468433
146	0xbaa9178b	-0.0012900693
147	0xba2b24d4	-0.000652862
148	0x3d604ffa	0.05476377
149	0xbb10081f	-0.0021977497
150	0xbd93817d	-0.07202432
151	0x3b7df19b	0.0038748744
152	0xbd0b97e6	-0.03408041
153	0xbd4a4fcf	-0.049392518
154	0x3c87b5e2	0.01656622
155	0x3ca590c6	0.020210635
156	0x3e221015	0.15826447
157	0xbb94f704	-0.004546048
158	0x3d41b84f	0.04729491
159	0xbd474b3c	-0.048655733
160	0x3d09bac2	0.03362537
161	0x3de2fb05	0.110830344
162	0xbc8fc9bd	-0.017552251
163	0x3cbe55ef	0.023234336
164	0xbbcef1bb	-0.0063154376
165	0xbcefdc10	-0.029279739
166	0xbcadff24	-0.021239825
167	0x3d855347	0.065100245
168	0xbcc56517	-0.024096055
169	0xbbc17687	-0.005904022
170	0xbccfe8a8	-0.025379494
171	0xbe1774a3	-0.14790587
172	0x3d944915	0.07240502
173	0x3d184711	0.03717715
174	0x3dc20aca	0.09474714
175	0x3d9913f9	0.074745126
176	0xbd85d826	-0.06535368
177	0x3d489278	0.04896781
178	0x3ca20566	0.019777965
179	0x3d3b6f78	0.0457606
180	0xbd03513c	-0.032059893
181	0xbc71ed6c	-0.014766078
182	0x3ddc9601	0.107707985
183	0x3c02ec00	0.007990837
184	0x3d504556	0.050847374
185	0x3cfa6d1c	0.030569606
186	0xbd91033e	-0.070806965
187	0x3d013d47	0.03155258
188	0x3cfe95df	0.031077323
189	0xbe2089a3	-0.15677504
190	0x3a969628	0.0011488842
191	0x3d839171	0.06424225
192	0x3d5aaec0	0.05338931
193	0x3dd5b27a	0.10434432
194	0x3cb2b7ff	0.021816252
195	0x3dc84b22	0.097799554
196	0x3d0afbc8	0.033931524
197	0x3d6aa1a7	0.05728307
198	0x3d6671c9	0.056260858
199	0x3d0c583d	0.034263838
200	0x3c9feb1f	0.019521294
201	0xbb6cb315	-0.0036117483
202	0xbe0c6090	-0.1370871
203	0x3dc0a154	0.09405771
204	0x3d0d40a3	0.03448547
205	0xbd5fe74b	-0.054663938
206	0xbe04059d	-0.12892766
207	0xbc536b51	-0.012904004
208	0xbd21ecc8	-0.039532453
209	0xbd92bcf5	-0.07164947
210	0xbc26860c	-0.010163795
211	0x3defcefd	0.11709402
212	0x3dab0821	0.0835116
213	0x3bd5cdd4	0.0065247808
214	0x3c393c4a	0.011305878
215	0xbcf44870	-0.029819697
216	0xbd8538ec	-0.065049976
217	0x3cd8a3e4	0.026445337
218	0x3e0594a3	0.13044982
219	0x3d11ec28	0.035625607
220	0xbbfe7a64	-0.007766055
221	0xbdadfe33	-0.0849575
222	0x3b9c4668	0.0047691353
223	0xbd139d28	-0.036038548
224	0xbce986e0	-0.028506696
225	0xbc8357e1	-0.016033115
226	0x3ca55e9b	0.020186713
227	0x3cde6d48	0.027151719
228	0x3a149229	0.00056675315
229	0xbda174fd	-0.07883642
230	0x3ced6383	0.028978115
231	0xbc96945b	-0.018381288
232	0x3df39519	0.118936725
233	0xbd6ba67b	-0.057531815
234	0xbdc4feb9	-0.09618897
235	0xbbe4de19	-0.006984484
236	0x3d9d70a5	0.07687501
237	0x3baabf9b	0.0052108294
238	0x3dd84c6d	0.10561452
239	0x3cee15ec	0.029063188
240	0x3c7e8f4b	0.015537093
241	0xbdbc790b	-0.092027746
242	0xbce22ebf	-0.02761018
243	0x3d974678	0.07386488
244	0xbdb601a2	-0.0888703
245	0xbdc8c34c	-0.09802875
246	0x3d7ba320	0.061434865
247	0x3db90843	0.09034779
248	0x3d815dbc	0.063167065
249	0xbd1eb767	-0.038749125
250	0xbd326487	-0.0435529
251	0xbcdd5fa1	-0.027023138
252	0xbdb8e18d	-0.090273954
253	0xbd22f8d2	-0.039788075
254	0x3d86411a	0.06555386
255	0x3cf09ce4	0.029371686

emb.bias f4 [20]
0	0x3c931e83	0.017958885
1	0xbd1ea13a	-0.038727976
2	0x3cbdc3f6	0.02316473
3	0x3babb2f9	0.005239841
4	0xbd4776e4	-0.048697367
5	0xbc00d141	-0.00786239
6	0xbc83f041	-0.016105773
7	0x3bc1534e	0.0058998233
8	0xbd00bff2	-0.031433053
9	0x3c90167a	0.017588843
10	0x3d3e59ed	0.04647248
11	0x39b1dccf	0.00033924586
12	0xbc8e8e1d	-0.01740175
13	0xbc8bfeeb	-0.017089328
14	0xbd32e4ea	-0.04367534
15	0x3c120d9a	0.008914376
16	0xbcad3c52	-0.021146927
17	0xbd25ebc8	-0.04050806
18	0xbd39172c	-0.045188114
19	0xbd16152c	-0.036641285

clf.weight f4 [10, 20]
0	0xbe8b6b26	-0.27230185
1	0xbf2cec2a	-0.6754786
2	0xbeafb257	-0.3431575
3	0x3f967c2d	1.1756645
4	0x3e482701	0.19546129
5	0xbeb597a9	-0.3546727
6	0x3ebe9850	0.3722558
7	0xbe623b78	-0.22092998
8	0x3e81e567	0.25370333
9	0x3ea20a18	0.31648326
10	0xbd94ddc1	-0.07268859
11	0xbe29e47c	-0.16591066
12	0x3e6c85c2	0.230979
13	0xbc6c087b	-0.014406319
14	0xbe92703e	-0.2860126
15	0xbe59991d	-0.21249814
16	0x3deca861	0.11555553
17	0xbe818130	-0.25293875
18	0x3ea73b06	0.3266222
19	0x3e4eeac6	0.20206746
20	0x3eda9545	0.4269201
21	0x3e3a9499	0.18220748
22	0x3f97ad83	1.1849827
23	0x3cbe589d	0.023235613
24	0x3eb2a855	0.34894052
25	0xbe9d1cc8	-0.3068602
26	0x3e51abd9	0.20475711
27	0x3ef89b52	0.48556
28	0x3f551b13	0.83244437
29	0xbdb89ce0	-0.090142965
30	0xbda71039	-0.08157391
31	0xbf825aae	-1.0183923
32	0x3e4b375b	0.19845335
33	0xbe5e60ea	-0.21716657
34	0x3ea168a5	0.3152515
35	0x3da20096	0.07910268
36	0x3e45cb5a	0.19315854
37	0xbe947bcf	-0.29000708
38	0xbe05cb94	-0.1306594
39	0x3e6ddd7b	0.2322902
40	0x3e5b5a0c	0.21421069
41	0xbdabe834	-0.083938986
42	0xbd16cfe7	-0.036819365
43	0x3da5027c	0.080571145
44	0xbe04d5c7	-0.12972175
45	0x3ec44ac6	0.38338298
46	0xbdfc6302	-0.12323572
47	0x3f1075b0	0.56429577
48	0xbe576b8d	-0.21037121
49	0x3e65f26d	0.2245576
50	0x3d1cfdd8	0.03832802
51	0xbe87dda0	-0.26536274
52	0xbee838cb	-0.4535583
53	0xbe253255	-0.16132481
54	0xbf01dd5e	-0.50728405
55	0x3b83aedd	0.004018648
56	0xbeb29a7b	-0.34883484
57	0xbee1f774	-0.44134104
58	0xbec9db03	-0.39424905
59	0xbe8f76d9	-0.2802036
60	0xbe3e593c	-0.18588728
61	0x3df4bbc3	0.11949875
62	0x3e694167	0.22778855
63	0xbe911cdc	-0.2834233
64	0x3e875b56	0.2643687
65	0xbebff062	-0.37488085
66	0x3f397a12	0.7245189
67	0x3e3c3f86	0.18383607
68	0x3e2f4747	0.17117034
69	0xbed4baa9	-0.4154866
70	0x3d15ac25	0.036541123
71	0x3efda4cf	0.495398
72	0x3d948870	0.07252586
73	0x3eaaf974	0.33393443
74	0xbf1bce13	-0.6086132
75	0x3e0fb6a0	0.1403451
76	0x3e8f59ac	0.27998102
77	0xbebfbbfc	-0.37448108
78	0xbf36683c	-0.712528
79	0xbed8b555	-0.42325845
80	0x3c3e5016	0.011615774
81	0x3e98daee	0.2985453
82	0xbc7357f6	-0.0148525145
83	0xbe63fde1	-0.22264816
84	0x3dfba412	0.12287153
85	0x3dfbf815	0.12303177
86	0x3d323056	0.043503128
87	0x3f2b406f	0.6689519
88	0x3db248e9	0.08705313
89	0xbe7537de	-0.23947093
90	0xbe331139	-0.17487039
91	0x3e6ff527	0.23433362
92	0xbe3980ad	-0.18115492
93	0xbd84fa31	-0.06493033
94	0x3ec64ecd	0.38731995
95	0xbe4b1d54	-0.19835407
96	0xbe8edb61	-0.27901748
97	0x3f184394	0.59478116
98	0x3f49ec86	0.7887653
99	0x3ea73d2d	0.3266386
100	0xbf09f561	-0.53890043
101	0xbf06f75d	-0.52721196
102	0x3f1990be	0.59986484
103	0xbe3a5c8f	-0.18199371
104	0x3b649520	0.0034878924
105	0x3cd4e039	0.025985824
106	0xbf7d4613	-0.9893505
107	0xbe3ca51c	-0.18422359
108	0x3e68b1fd	0.22724147
109	0xbeb3c569	-0.3511155
110	0xbd3c1e1c	-0.045927152
111	0xbdb4e19f	-0.08832096
112	0xbe3f28fb	-0.18667977
113	0xbeab8103	-0.33496866
114	0xbe766180	-0.24060631
115	0x3e93225c	0.28737152
116	0xbf0f4671	-0.5596686
117	0xbdf1a14a	-0.117983416
118	0x3ddd23b8	0.107978284
119	0xbea957bf	-0.33074757
120	0x3e698af5	0.22806914
121	0x3e883e13	0.2660986
122	0xbe1d6577	-0.15370737
123	0xbe8ff122	-0.28113657
124	0x3d331ee8	0.043730646
125	0xbedd8273	-0.43263587
126	0xbeb16198	-0.3464477
127	0xbf24f4ec	-0.6443622
128	0xbe33afc8	-0.17547524
129	0xbc7cb5d5	-0.0154242115
130	0x3dde22a4	0.10846451
131	0x3dfb716c	0.12277493
132	0x3f327003	0.69702166
133	0xbe9a5f4b	-0.30150828
134	0x3e2ed6d4	0.17074138
135	0xbe8d7f7d	-0.27636328
136	0x3eacc27b	0.33742127
137	0xbd42421c	-0.047426328
138	0xbf06472a	-0.5245234
139	0x3e0532cb	0.13007657
140	0x3ea9f304	0.3319322
141	0x3e61888b	0.22024743
142	0x3e1247ab	0.14285152
143	0x3eff3e40	0.4985218
144	0xbea78c64	-0.32724297
145	0x3e21d779	0.15804853
146	0x3eda301f	0.42614838
147	0x3e80a397	0.2512481
148	0x3e2b3236	0.16718373
149	0xbe707ad9	-0.23484363
150	0x3ea46d04	0.32114422
151	0x3ef21a38	0.47285628
152	0xbd789f2a	-0.060698666
153	0xbe8d63e3	-0.2761527
154	0xbe8ef6dc	-0.27922714
155	0xbece4892	-0.40289742
156	0x3ea48254	0.32130682
157	0x3d9c482f	0.076309554
158	0xbdb5a2aa	-0.08868916
159	0xbd01dcb9	-0.03170464
160	0xbe064335	-0.13111575
161	0xbe7ca79d	-0.24673314
162	0x3e27cfda	0.16387883
163	0x3eafa435	0.34304968
164	0x3e157bcd	0.14598008
165	0x3e9e07ee	0.30865425
166	0x3f1edb08	0.62052965
167	0xbdd641f0	-0.10461795
168	0xbec970c0	-0.39343834
169	0x3d0434f3	0.03227706
170	0xbca0c4ca	-0.019625086
171	0x3eb1ada1	0.3470278
172	0x3ee12931	0.4397674
173	0x3ce79211	0.028267892
174	0x3f6bd3e2	0.9212018
175	0x3f979382	1.1841891
176	0x3e8dd151	0.27698758
177	0x3ecc7298	0.39931178
178	0x3d9da7ed	0.07698045
179	0xbf200773	-0.62511367
180	0xbe9d1e24	-0.30687058
181	0x3ecc65b4	0.39921343
182	0xbef162ca	-0.47145683
183	0xbebeb529	-0.3724759
184	0xbe7349a8	-0.23758566
185	0xbe712ed5	-0.23553021
186	0x3e8eb234	0.27870333
187	0x3e54366e	0.20723888
188	0x3ef13dcf	0.4711747
189	0xbe2d9209	-0.16950239
190	0x3ea6869d	0.32524577
191	0xbf3f4db4	-0.7472794
192	0x3d0d2596	0.034459673
193	0xbe26af73	-0.16277866
194	0x3dbcadc9	0.092128344
195	0x3f14d91e	0.58143795
196	0x3d8b5666	0.068035886
197	0x3d1bf253	0.038072895
198	0xbc6eab76	-0.014567247
199	0xbd161fed	-0.03665154

clf.bias f4 [10]
0	0xbd6e899b	-0.0582367
1	0x3d89a90d	0.06721697
2	0x3dbaea64	0.09126738
3	0xbcd52662	-0.026019279
4	0xbdfcb24e	-0.123386964
5	0x3e1f219a	0.15540162
6	0x3c96b030	0.01839456
7	0xbd1e4047	-0.03863552
8	0x3e04308c	0.12909144
9	0x3e05fcf8	0.13084781
