models/MLP.pt (torch_old, 875746 bytes, 8 tensors)

fc1.weight f4 [256, 784]
000000 9b 1c 9c c0 69 99 a0 bf b0 7e 3b 3d f6 af aa bc
       -4.878492 -1.2546817 0.045775115 -0.020835858
000010 47 37 e5 be 48 2d 7c 3f b1 4c 8a bf 82 f1 5d 3f
       -0.44768736 0.98506594 -1.0804654 0.86696637
000020 52 40 14 40 1c 05 2f 40 5d 89 50 bf fd 2d d9 bf
       2.3164258 2.7346869 -0.814596 -1.696716
000030 87 f7 38 c0 fb 2d 1f c0 15 6b d2 bf 9e bd 2c c0
       -2.8901079 -2.4871814 -1.6438929 -2.6990733
000040 35 c3 24 c0 32 81 1d c0 3e da 53 3f 2e 4c 81 40
       -2.5744145 -2.4610105 0.82754886 4.0405493
000050 9e 64 22 40 f1 a8 fb 3e d0 e7 b3 3f 33 24 7f be
       2.5373912 0.4915233 1.4055119 -0.24916153
000060 76 d3 7a 3e 45 7d 32 3d 3d 20 0e be 55 62 10 c0
       0.24494728 0.043576498 -0.13879485 -2.2560017
000070 e0 e4 13 c0 8b 4f b2 3e ce 5d a0 3f 17 bc 1e bf
       -2.3108444 0.3482631 1.2528627 -0.6200575
000080 7b fe 80 3f 21 8e 95 be df 6a d2 bf e5 19 ea 3e
       1.0077661 -0.29209998 -1.6438864 0.4572288
000090 58 b3 04 c0 e7 f5 f8 bf 1f 71 25 bf 07 9c c4 3e
       -2.0734463 -1.9450043 -0.64625734 0.3840029
0000a0 91 e0 55 be 70 cd 83 bf ac 67 bd bf 1d c3 07 bf
       -0.20886447 -1.029707 -1.4797263 -0.53032094
0000b0 62 c3 4e 3e 33 85 97 bd 36 86 a0 bf 39 ce 1b bf
       0.2019172 -0.073984526 -1.2540958 -0.60861546
0000c0 f5 3b 8f 3d 17 ae 72 be 73 1f d1 be 1d fc 87 3f
       0.06993858 -0.23699223 -0.40844306 1.0623814
0000d0 08 3f 8f 3f 1c 1b 3a 3f b0 03 29 40 b0 c4 55 3e
       1.1191111 0.72697616 2.64085 0.20875812
0000e0 6a 05 c5 3f 51 58 40 bf 9c 66 f9 3f d2 f3 de be
       1.5392277 -0.7513476 1.9484439 -0.43545395
0000f0 c6 26 75 bf f9 ae 45 c0 3c cb a8 bf 4f 11 72 bd
       -0.9576229 -3.0888045 -1.3187022 -0.059098538
000100 b3 54 f4 3f e6 42 9a 3f 72 5b 1e 3f 35 ec c4 3e
       1.9088348 1.2051666 0.61858284 0.38461462
000110 26 a1 bb 3e 1f be 5f 3f 0e c0 2e be 2d 61 26 bf
       0.36646384 0.87399477 -0.1706545 -0.6499203
000120 1b 40 67 3f a1 25 be 3f 73 b9 83 3f a2 fa e2 3f
       0.9033219 1.4855233 1.029097 1.7732737
000130 b1 48 a8 3f 96 df 2a bf 0d f9 f3 bf ca 93 cd bf
       1.3147184 -0.66747415 -1.9060379 -1.6060727
000140 80 89 1c 3f 62 a5 a2 3f cc e5 21 3f 86 11 19 40
       0.6114731 1.2706721 0.6324127 2.3916945
000150 db 78 03 40 9a ea 0d 3f 7e 31 c9 3f 9e a3 48 bf
       2.0542514 0.554361 1.5718229 -0.7837466
000160 c0 03 bf bf b3 3e dc bf 0e 8a 74 3f bf 09 84 3f
       -1.492302 -1.7206634 0.95523155 1.0315474
000170 86 94 9f 3e 4e 23 18 3e 11 23 ef 3d 80 06 62 be
       0.31168002 0.14857218 0.1167661 -0.22072792
000180 ea 67 05 3d b6 f4 af be d3 60 22 bf 60 8e 80 bf
       0.032569803 -0.34366387 -0.6342899 -1.0043449
000190 26 04 d7 bc 36 32 53 bd 1d f9 94 3e 73 fc a2 3d
       -0.026247095 -0.051561557 0.29096308 0.07958307
0001a0 0e 06 a4 3d 68 11 59 3f a8 e4 a3 bf 5f f0 48 bf
       0.08008967 0.84792185 -1.2804155 -0.7849178
0001b0 4a a4 4b 3f 40 86 03 3f b5 3c 16 3f df e4 18 bf
       0.7954756 0.51376724 0.5868638 -0.5972423
0001c0 11 d6 df 3f f8 ac 98 3f 28 ca e5 3e 02 c3 5b bf
       1.7487203 1.1927786 0.44880795 -0.85844433
0001d0 97 a1 22 bf 05 ff be bf d9 03 9c 3f 40 8e 40 3e
       -0.63527817 -1.4921576 1.2188674 0.18804264
0001e0 09 ec 16 3e c6 b1 51 3f 0d b2 f0 3e 9c 1f 28 bd
       0.14738478 0.81911886 0.47010842 -0.04104577
0001f0 4c e0 11 3d 03 a2 32 3c 79 2c 84 be a3 7c 46 bf
       0.035614297 0.010902884 -0.2581518 -0.7753393
000200 72 b4 2b 3e 27 b9 4f 3f c0 9c 07 3f c4 41 d6 3e
       0.16768053 0.81141895 0.52973557 0.4184705
000210 73 69 b1 3d 08 4d 1b 3f 7a e6 80 3e d5 28 b2 bd
       0.08662691 0.60664415 0.2517584 -0.08699194
000220 5f 37 5c be d8 d2 6c 3e 8e e2 5c bd d9 d1 c2 3f
       -0.21505497 0.23127306 -0.053926997 1.522029
000230 9d 92 60 3f 57 40 4c 3f 62 27 81 bf 53 c4 97 bf
       0.87723714 0.79785675 -1.0090144 -1.1856788
000240 e1 28 25 3f 38 38 1c bf c3 36 a1 3f d2 02 5a bd
       0.645155 -0.61023283 1.2594837 -0.053225346
000250 93 43 56 3e 04 32 a8 3e 8a c4 52 3e b2 f5 aa 3d
       0.20924215 0.3285066 0.20582786 0.08347644
000260 91 af 18 be d6 66 ae 3d 45 b9 64 be dd ef 71 bd
       -0.14910723 0.08515708 -0.223363 -0.059066642
000270 51 3d 25 3e 10 42 c4 3e da 89 59 3e 99 d4 16 3e
       0.16136672 0.38331652 0.21243992 0.14729537
000280 58 a4 31 be ce a2 ab 3e c4 2a e1 3d 93 dd 82 3f
       -0.17347848 0.33522648 0.10994485 1.0223869
000290 95 1b 6d bf 07 6d 81 bf ae bb a5 bf 9e 67 af 3f
       -0.9262021 -1.0111398 -1.29479 1.3703496
0002a0 d1 30 e2 3c ab 38 9b bf 08 89 ae bf c7 4b 60 3e
       0.027611168 -1.2126669 -1.3635569 0.21903907
0002b0 81 48 3d 3f 22 19 d6 be 62 74 40 3f 76 80 d3 3e
       0.7393876 -0.4181605 0.75177586 0.41308945
0002c0 c3 26 a7 3e 8f 29 87 be 54 f7 f6 be 11 db ec be
       0.3264676 -0.26398894 -0.4823557 -0.46260884
0002d0 75 1e 5f bf 49 9a 1b bd ab 46 24 be 10 76 22 be
       -0.8715585 -0.037988935 -0.16042583 -0.1586535
0002e0 52 51 81 3e 51 f1 d5 be 09 cb f5 bd dc 7f e2 3e
       0.25257355 -0.41785672 -0.120016165 0.44238174
0002f0 c6 9a 68 be d0 18 c2 3d bc 2f a0 3e f8 ea 06 bd
       -0.22715291 0.09477389 0.31286418 -0.032938927
000300 8f 11 fe 3e fa 3e 87 3d 78 69 63 3f 7a 3b 31 3f
       0.4962277 0.06603809 0.8883281 0.6923138
000310 14 63 22 40 a3 7c 37 3f 33 bd 53 be 62 cd 42 bf
       2.5372972 0.71674556 -0.20677643 -0.7609464
000320 86 79 14 3f 53 71 30 3f f4 7c 59 3f 5f c9 95 bd
       0.5799793 0.6892292 0.8495629 -0.07313799
000330 91 5e b8 3e 5a cd 0c bc d6 c3 d1 be 0a 70 2a bf
       0.36009648 -0.0085938815 -0.40969723 -0.6657721
000340 ea 7f a2 be be 29 b1 bc 14 9c 6c be 29 9a 8c 3e
       -0.31738216 -0.02162635 -0.23106414 0.27461365
000350 7e 51 a4 3e 20 03 83 3c 41 5e a8 3d 50 46 2e 3f
       0.32093424 0.015992701 0.082211025 0.6807604
000360 d6 50 09 be 51 8d 24 3e ed 2e 30 3f 0a 80 eb be
       -0.13409743 0.16069533 0.68821603 -0.45996124
000370 ae 91 6d 3f 31 7e 61 3e 46 48 75 bd 68 6e 9f 3f
       0.92800415 0.22020794 -0.05988338 1.2455568
000380 c9 2d 46 40 cc 4c 78 3f 74 a4 44 3e 43 1e 10 3f
       3.0965445 0.9699218 0.19203359 0.56296176
000390 f1 75 bb 3f 2f 0e ef 3e 16 42 76 3f b8 6b ca be
       1.4645368 0.4669051 0.9619459 -0.39535308
0003a0 45 7c c4 3d e8 30 c4 3e d9 99 d1 3e 72 d5 ef bc
       0.09594015 0.38318563 0.4093769 -0.029276583
0003b0 90 6b 05 be d9 e6 47 3e cc b2 09 3e ab 96 bb 3e
       -0.13029313 0.19521655 0.13447112 0.36638388
0003c0 5b f6 13 3f 3b c2 7a 3e 86 29 31 3e b4 ed c5 be
       0.57797784 0.24488156 0.17300996 -0.38657916
0003d0 98 41 d7 be eb bf d5 3e 54 d3 90 3f ae fd 41 3c
       -0.42042232 0.41747984 1.1314492 0.011840267
0003e0 e0 7a 45 3f f6 dd 2d be b4 1d 1b 3f 7c b6 4f bd
       0.7714062 -0.16979203 0.605922 -0.05071114
0003f0 c0 d2 24 40 db 8c 0c 3f e4 4e be be 19 9e bf 3e
       2.5753632 0.5490243 -0.37169564 0.37425306

fc1.bias f4 [256]
000000 b3 8e d1 bf b0 46 4d 3f 91 a4 ab 3f 7b fc cb 3f
       -1.6371673 0.80185986 1.3409597 1.5936426
000010 a1 65 9f 3e 40 1b b7 3f bd 0a 51 bd 58 6a bd bd
       0.31132224 1.4305191 -0.05103563 -0.09248799
000020 5b ad 34 3f c4 81 be 3f aa 45 6d 3f 5e 4e 97 bd
       0.7057702 1.4883351 0.92684424 -0.07387994
000030 ce bb be bd ae 14 ac bf b5 35 3d 40 09 35 bd bc
       -0.09313165 -1.3443811 2.956403 -0.023096578
000040 11 73 ab bd af b4 af 3f f2 4d 03 bd d9 53 8b bd
       -0.083715566 1.3727015 -0.032056756 -0.06803102
000050 6c 87 95 bd 4d 46 86 bd 41 f4 e5 3f 23 cc 5b 3e
       -0.0730122 -0.065563776 1.7965165 0.2146459
000060 b1 59 68 3f 5c 7e cf bd fc a4 87 3e 68 82 cf 3f
       0.9076186 -0.10131523 0.2649306 1.6211672
000070 53 90 f0 bd 16 71 dc 3f 47 28 79 bd f1 02 bc 3f
       -0.11746278 1.7222011 -0.060829427 1.4688398
000080 6c d4 61 3e ec 2a 46 3f e8 86 01 bf 46 f3 ee be
       0.22053689 0.77409244 -0.50596476 -0.46669978
000090 b9 d8 5b 3f dd 64 8d 3e b5 82 bf 3e c7 ab 30 3e
       0.8587757 0.27616015 0.3740441 0.17253028
0000a0 4b 79 75 3f 3a 26 5d bd 30 25 c4 3e 2b 1d 99 3d
       0.95888203 -0.053991534 0.38309622 0.074762665
0000b0 1b 87 5e 3f 71 af 13 bd d6 58 54 bd 92 8b 25 bd
       0.86924905 -0.036055986 -0.051842533 -0.040416308
0000c0 e9 85 9a 3f fa 4e 69 3e d2 09 f3 bc 2b 5f 64 bd
       1.2072116 0.22784033 -0.029667769 -0.05575482
0000d0 12 03 90 bf 84 a1 62 bd 73 3a 14 bd fd b2 32 be
       -1.1250937 -0.055329815 -0.036188554 -0.17451091
0000e0 99 1c e3 bc 40 d9 b3 bd 41 9c 7f bd 9e 1a 9c 3e
       -0.027723597 -0.087816715 -0.062404875 0.30489057
0000f0 77 11 9f 3e a0 4a 79 bd fa 38 a1 be e6 f0 56 bd
       0.31068012 -0.060862184 -0.31488782 -0.052475832
000100 56 29 b6 bd 03 3d 13 40 ea ba 25 3f 35 f5 12 3f
       -0.08894603 2.3005989 0.64738333 0.57405406
000110 64 59 0d bd f5 c9 88 bd fd 55 ba bd 60 20 8b 3e
       -0.034509078 -0.06679145 -0.09098432 0.27173138
000120 4b 00 96 3f 61 b0 16 3f ea e4 57 be 3b 30 a2 3e
       1.171884 0.5886288 -0.21083418 0.31677422
000130 2c 4a 7b 3f 6c 39 08 3f 22 6a c2 bd 5d 31 c6 be
       0.9816005 0.5321262 -0.094928995 -0.38709536
000140 7f bd 0c 3d cd 72 0f 3f 52 47 1a bf f2 6c a9 3f
       0.034360405 0.5603455 -0.60265076 1.3236372
000150 d7 a0 a4 3e 69 1b 6d be 3f c4 75 3f e9 90 cc bf
       0.3215396 -0.23154987 0.9600257 -1.5981723
000160 31 68 4d 3f e6 a3 bc 3f 60 95 76 3f a7 bc b5 3e
       0.8023711 1.4737518 0.9632168 0.35495493
000170 47 ba d9 3f f5 9e 85 3f 0a b5 19 bd 0d a6 51 3f
       1.7009972 1.0439135 -0.037526168 0.81894
000180 b5 01 31 be 97 f4 c0 bd 49 29 4d 3f 99 83 2b 3f
       -0.17285807 -0.09421652 0.8014112 0.6699768
000190 8c 26 15 3f 82 68 a8 3f 46 64 65 bd b4 fb f1 be
       0.5826194 1.3156893 -0.05600383 -0.47262347
0001a0 6b c9 81 3e 68 49 0d bd 93 8e 64 bf f2 49 22 bd
       0.25348982 -0.034493834 -0.8928005 -0.0396213
0001b0 d8 fa b8 bd 55 28 35 3f 86 24 90 3f f2 92 67 3e
       -0.0903222 0.70764667 1.1261146 0.22614649
0001c0 bc e6 da 3e a5 5a 25 bd b2 7f 0f 3c cc f9 2f bd
       0.4275416 -0.04036965 0.008758472 -0.042962834
0001d0 ff 94 d7 be 99 8b d3 3f 88 f0 15 40 91 6d 95 bf
       -0.42105862 1.6526977 2.3428059 -1.1674062
0001e0 85 61 bc bd 96 b1 2a bd 8c a6 90 3f 44 dc be bf
       -0.09198288 -0.041673265 1.1300826 -1.491097
0001f0 2c 93 59 bf ac f8 93 bd c2 c2 9a 3f 94 4a c6 3e
       -0.8499019 -0.07225165 1.2090685 0.38728774
000200 37 c7 97 3e 27 36 35 40 5b 44 73 3f 51 e6 d0 bd
       0.29644176 2.8314302 0.9502618 -0.10200179
000210 f2 67 24 bd e6 a7 bb 3f 48 f0 84 bd b2 df a5 bd
       -0.040138192 1.4660614 -0.064911425 -0.08099307
000220 6f 62 c5 3f 64 1c 30 3e b9 68 10 3f 6e d1 de bd
       1.5420665 0.1719833 0.56409794 -0.10879789
000230 cf 1c b6 3e 99 04 09 be e9 1e 8d bd 62 b9 d7 bd
       0.35568854 -0.1338066 -0.06890661 -0.10533406
000240 8e dd e1 3e 52 26 b7 bd 0b c3 31 3f 91 22 50 3f
       0.44114345 -0.08942856 0.69438237 0.81302744
000250 1f fd 5b 3f 78 36 cd bd 9b e3 9f 3f a7 37 b8 bb
       0.8593311 -0.10020155 1.2491335 -0.0056218687
000260 52 7f 78 3e dc 53 7a 3e cd c2 91 3e 13 cc d8 3e
       0.24267319 0.24446052 0.28468934 0.42343196
000270 de c6 f7 3f a3 a0 9a 3f 74 ab c5 3d 8e b7 3b bf
       1.9357564 1.2080272 0.09651843 -0.7332696
000280 4c e0 bd 3f c5 36 54 bd e4 ae fa 3f 42 ec 98 bd
       1.4834075 -0.051810045 1.9584622 -0.074669376
000290 fc fb 6a 3f be 24 b0 bd ac c2 28 bd 00 a3 8f 3f
       0.9179075 -0.08600758 -0.04120128 1.1221619
0002a0 99 e1 85 bd 63 1f 02 bf 59 c4 82 bd 70 56 79 bd
       -0.0653717 -0.5082914 -0.063851066 -0.06087345
0002b0 8e 3f 27 bd ed 1c 32 3f 4d 19 09 3f 9c f3 2b 3f
       -0.040832095 0.6957539 0.5355423 0.67168593
0002c0 78 c0 56 3e d5 5a 87 bd b1 fb 33 bd 40 2d 88 3f
       0.20971859 -0.06609122 -0.043941204 1.0638809
0002d0 67 3d 82 3d 89 44 38 be 19 14 22 bd 3e ca 8f 3e
       0.06359368 -0.17994894 -0.039569948 0.28083986
0002e0 a8 ac 93 3f 88 10 16 bd 64 65 b1 bd c1 e6 01 3f
       1.1537066 -0.03663686 -0.08661917 0.5074273
0002f0 25 40 b9 3f c6 e0 82 3c 3e 5e 1f bd 56 04 e1 3f
       1.44727 0.015976321 -0.038908236 1.7579448
000300 31 ca 50 bd c4 6d a1 bd 4a f2 e1 3e d7 3d e8 bd
       -0.050974075 -0.07882264 0.44130164 -0.1133992
000310 ee 05 85 3e 4a 76 4d 3e f1 89 43 be f3 d3 66 3f
       0.25981086 0.20064655 -0.19095589 0.9016716
000320 a1 8d 33 be e0 df 35 bd f9 68 45 bd c2 f9 02 3c
       -0.17534496 -0.044402957 -0.048195813 0.007994117
000330 99 2d 44 bf c3 54 7a bd 2d e2 7e bf e4 e9 b3 bf
       -0.76632077 -0.06111599 -0.99563867 -1.4055753
000340 80 35 01 bf dc dd db 3f 10 1f 82 3f b0 e4 40 3f
       -0.5047226 1.7177081 1.016573 0.7534895
000350 e1 77 94 3f d1 3c 49 bf 41 f7 e5 3d 00 9c 5f bd
       1.1599084 -0.78608423 0.112288006 -0.054592133
000360 9e fa 48 bd 35 5c ad 3e 35 a3 94 3f 46 28 1d 3e
       -0.049067132 0.3385941 1.1612307 0.15347394
000370 be 89 a6 bd 51 31 2a 3e 4a a6 07 3f b0 ad b9 bf
       -0.08131741 0.16620375 0.5298811 -1.450613
000380 23 08 44 3f 32 60 06 3f 35 3b c1 bd 72 85 7e bf
       0.76574916 0.5249053 -0.09435121 -0.9942237
000390 28 8b 71 3f c0 9b 26 bd fc dc 9f be ae 4b 44 bd
       0.9435296 -0.04067588 -0.31223285 -0.047923736
0003a0 22 2f 45 bd d3 23 b2 bd 25 93 82 3c b8 d0 dd 3f
       -0.048140652 -0.08698239 0.015939305 1.7329321
0003b0 48 1b a0 3f e7 bd cb bd f8 ea 70 bf 33 91 b2 be
       1.2508326 -0.099483304 -0.94108534 -0.34876403
0003c0 59 c8 bd 3f 30 93 45 bd 5f 12 a0 3f 85 90 1d 40
       1.4826766 -0.048236072 1.2505606 2.4619458
0003d0 6b fa 7a bd c5 2a 0a be 99 16 17 3f 13 bd 07 40
       -0.061273973 -0.13492878 0.59018856 2.1209152
0003e0 d8 f5 22 bd 22 11 08 3e 46 ec 08 c0 75 32 23 bf
       -0.039785236 0.13287786 -2.139421 -0.63748866
0003f0 0f fa 2b bd 39 21 0d 3f 4d 31 06 bf 73 17 b5 bd
       -0.04198652 0.5512882 -0.5241898 -0.08842363

fc2.weight f4 [64, 256]
000000 50 0a 26 3e 53 de 18 be b3 8e a1 be 5a eb 1d bf
       0.16214871 -0.1492856 -0.31554183 -0.61687243
000010 dc 0b ca 3c 97 08 97 3c 83 35 3c 3c 81 ee c9 3b
       0.024663858 0.018436713 0.011487368 0.006162465
000020 74 ad ad be b5 5c c1 bd f4 08 ef 3d e3 02 25 3d
       -0.33921397 -0.094415106 0.116716295 0.040285956
000030 4b bd e6 3b 32 83 45 be e7 e5 94 3e e4 74 64 bd
       0.0070416084 -0.19288328 0.29081652 -0.055775538
000040 25 53 aa be 75 22 51 3e 12 ca 4a 3e 1b a4 65 bd
       -0.3326656 0.204233 0.19803646 -0.056064706
000050 4a f6 e9 3d 4d a9 29 3d 9f fb 25 3f f5 71 6b 3f
       0.11423929 0.041421223 0.6483707 0.9197076
000060 57 e6 22 3d e1 64 4d 3d 80 94 59 bd ab f4 df be
       0.03977045 0.050145034 -0.053120136 -0.43741354
000070 13 fc f7 3c 1d 7f a0 3e eb 37 ec bd af ba 58 bd
       0.030271566 0.3134698 -0.11534103 -0.05291241
000080 ff ba 05 be 7c ef 06 3e a5 5f e1 be c3 3a 56 3e
       -0.13059615 0.13177294 -0.44018283 0.20920853
000090 af 3e 9f 3c b2 58 57 bf fe e4 dc be 1d 29 8e bf
       0.01943907 -0.84119713 -0.43143457 -1.1106297
0000a0 fa bb f5 3e 62 35 01 be 6a 4a 7f be 2f 39 28 3e
       0.47994977 -0.1261802 -0.2493073 0.16428064
0000b0 ac 61 23 bf b6 cb 11 3b 84 52 44 3c 40 f1 cd 3b
       -0.6382091 0.0022246665 0.011982564 0.0062848628
0000c0 b3 f6 38 3f af 1d c4 3c 52 6f c4 3c 3e 66 91 3d
       0.72251433 0.023939935 0.023978863 0.07099579
0000d0 65 7e ad bf 3c b8 bb bd a9 e2 cc bd 19 99 6a 3d
       -1.3554198 -0.09165999 -0.100041695 0.05727491
0000e0 a2 3a 03 3d 8e c1 8e 3d 0f be d7 bd ee ab a7 3e
       0.03203834 0.069705114 -0.10534298 0.3274836
0000f0 4e 0a 88 be 06 fd 46 3c 14 e6 a1 3e f5 c0 86 bd
       -0.26570362 0.012145286 0.31620848 -0.065797724
000100 e4 98 a0 bd 22 9d 38 be 1a 42 f0 3c 64 9a 20 be
       -0.078416616 -0.18028691 0.029328395 -0.15683895
000110 cb 88 d1 3d f8 27 b7 3a 3f d5 db 3d ef ab 31 3e
       0.10231169 0.0013973704 0.10734033 0.17350744
000120 ef 1d b8 be eb 73 92 3d 1e fd fc 3e 55 f9 a0 3e
       -0.35960338 0.07151016 0.49411863 0.31440225
000130 d4 4c a4 bd 9a af a1 bd 21 fa 87 bd 9a fa 9b bf
       -0.08022466 -0.078948215 -0.06639505 -1.2185853
000140 df 4b 31 bf 1c cd bb 3e 0b 88 a9 be e1 e6 38 3e
       -0.69256395 0.36679924 -0.33111605 0.18056823
000150 d7 18 44 bf 11 2d 0d be 60 0c 23 3f 6d 55 95 be
       -0.766004 -0.13786723 0.6369076 -0.29166737
000160 22 18 7a 3c 10 61 d6 be c5 78 5d 3f 0e 96 fc bd
       0.015264543 -0.41870928 0.86512405 -0.12333308
000170 ee aa 94 3e 0e 85 d6 3d fc 7c dc 3d 58 2f 1f 3f
       0.2903666 0.10474597 0.107660264 0.62181616
000180 e3 90 96 be d2 be 9c bd 5e 8b ad be 8b e1 ad be
       -0.29407415 -0.076535836 -0.3389539 -0.33961138
000190 4c 44 18 3e b4 c5 66 3f a5 ad 66 3b 1c b7 99 bb
       0.14869803 0.9014542 0.0035198715 -0.004691018
0001a0 12 e9 a7 3e c4 41 18 3d 0c 24 1b bf 33 ca 11 3c
       0.32795006 0.037172094 -0.6060188 0.008898306
0001b0 28 12 c8 3d ae ed 7c 3d 78 c5 d5 3d fb 93 8c 3e
       0.09769088 0.061750107 0.10438055 0.2745665
0001c0 b3 40 43 bf 2a 4c 4c bd 7a b6 13 3f 6b 6b 55 3b
       -0.762706 -0.049877323 0.5770031 0.0032565247
0001d0 be f7 2a be 91 e0 b3 3e 96 09 8c be f0 e6 1e be
       -0.16696069 0.35132268 -0.27351063 -0.15517783
0001e0 af 6b e2 bb 80 ce a0 3b a6 b4 a7 3e de 65 5a be
       -0.0069098095 0.004907429 0.3275501 -0.21327922
0001f0 5b 22 d7 3d fd 22 82 bd b9 ef 20 3f 0a 02 62 3d
       0.105046 -0.0635433 0.6286579 0.055177726
000200 bf 45 89 3e c1 69 4b be ca 77 2d 3d 99 70 bc bd
       0.26811025 -0.1986456 0.042350568 -0.09201164
000210 61 28 7d bd 6d aa 49 bf cd a2 00 be a5 69 eb 3d
       -0.061806086 -0.78775674 -0.12562104 0.114947595
000220 38 00 bf 3f 6b e4 12 bf dc 6a 0a 3b df db dc bc
       1.4921942 -0.5737979 0.0021120822 -0.026960311
000230 24 01 24 3e aa 4c 90 bf 0f 68 2d 3d 85 41 fd 3c
       0.1601606 -1.1273396 0.042335566 0.030915031
000240 7a ae 36 be c1 77 cf 3d 5e 63 08 3f 3f 6e b4 3d
       -0.17839995 0.10130263 0.5327662 0.0881009
000250 54 cd 02 be ad f4 40 bd 26 67 24 3f a6 1a 56 3d
       -0.12773639 -0.04710834 0.6421989 0.052271508
000260 f6 ea ee be 37 86 2b 3f 0f 9d ce 3e 3b 56 05 bf
       -0.46663636 0.6700167 0.403542 -0.520847
000270 7b 0f b7 3e d4 47 1e c0 5a c3 28 3d e5 c7 70 be
       0.35753998 -2.473134 0.041201927 -0.23513754
000280 d0 15 20 bf 11 5e 85 bd 57 fa af 3e 36 bb ba 3d
       -0.62533283 -0.06512082 0.34370682 0.09117739
000290 72 95 90 bf 11 1b cf 3d 44 f9 95 3c 6c bf 1c 3f
       -1.1295607 0.101125844 0.018307336 0.61229587
0002a0 cf 55 df 3d 28 00 5d bf 20 f3 a2 3d c2 d1 31 bc
       0.109050386 -0.86328363 0.07956529 -0.010853233
0002b0 22 8a 89 bd 80 06 91 bf 8c 9c a4 bd af cb e5 bf
       -0.067158 -1.1330109 -0.080376714 -1.7952784
0002c0 ad c6 36 be cb 41 ab 3d 77 67 29 3d eb 84 93 3d
       -0.17849226 0.083621584 0.041358437 0.072030865
0002d0 95 9a 28 be c3 66 0b be 6b e4 8f bd 01 75 1f 3d
       -0.16465218 -0.13613419 -0.07025989 0.038929943
0002e0 b3 87 4d 3f ef c6 1c bd 35 f5 0f 3c 6a 7f 65 3d
       0.80285186 -0.038275655 0.008786489 0.056029715
0002f0 7e d7 f5 bc 81 12 4b bd 9c a2 85 bd e5 90 76 3f
       -0.030009981 -0.049578194 -0.06525156 0.9631484
000300 05 0d 6e 3d 66 44 05 3d c6 3e 43 bf 1e db e6 3d
       0.058117885 0.032535933 -0.7626766 0.11272262
000310 8b ce 8a 3e a4 a9 94 bd 3f 88 d7 3b 01 c7 fe 3d
       0.27110705 -0.07258919 0.006577521 0.12440301
000320 e9 e5 0a bf e4 ee f5 ba e9 87 91 3c f6 27 70 bc
       -0.54257065 -0.0018763212 0.017765002 -0.014657965
000330 2f 64 d0 be bb 50 3d be 24 fa c1 3d 8d 4a ba be
       -0.40701434 -0.18487827 0.09471539 -0.36385003
000340 af 7d 23 be 54 5c 22 3e e5 e6 9e bf a6 b7 8f 3e
       -0.15965913 0.15855533 -1.2414213 0.280698
000350 49 6c bf 3e 14 6a 2a be dc 70 49 3d 3f c5 7a 3d
       0.37387303 -0.16642028 0.049179897 0.061223265
000360 e8 98 ae bd 01 1a cb bd 71 13 90 3e c9 56 12 3e
       -0.08525258 -0.09917069 0.28139833 0.14290918
000370 8f a3 2c bf 62 23 18 bf cb cf 86 3f ae a2 72 be
       -0.6743707 -0.5942899 1.0532163 -0.2369487
000380 5d eb 9d 3d 9e a6 b5 bd d8 d3 85 3d 62 6c 53 bd
       0.077109076 -0.0886967 0.065345466 -0.051617034
000390 be 48 a9 be 7b 13 98 bd 2d 2b dc bd 03 8d 3a 3d
       -0.3306331 -0.074255906 -0.107504226 0.045544636
0003a0 dd 11 3e 3d e7 6f 60 3f 8f 06 c5 be d5 db 2b 3e
       0.046403755 0.8767075 -0.38481566 0.16783078
0003b0 a7 de d7 3d 97 cc c3 3c 5f 0b 46 3e c9 c4 01 bf
       0.105405144 0.023901267 0.19340275 -0.50690895
0003c0 73 b5 97 bd 1e 51 a1 3c 88 3d 7a bd 03 5a bb 3f
       -0.074076556 0.019692 -0.061093837 1.4636844
0003d0 cd 32 23 3c 96 62 20 3e 99 bc 53 bd b8 69 a9 3e
       0.009960842 0.15662608 -0.051693533 0.3308847
0003e0 52 8a 92 3c 8e 37 7b 3d 09 6f 0e bf 35 2f 02 c0
       0.017888222 0.061332278 -0.55638176 -2.0341313
0003f0 57 79 bd 3c d4 97 a4 3a 27 a3 1c bf 02 48 f3 3c
       0.023129148 0.0012557455 -0.6118645 0.029697422

fc2.bias f4 [64]
000000 33 99 f4 3f 0b 34 8f be 7f 97 7a be 53 55 9d 3f
       1.9109253 -0.27969393 -0.24471854 1.2291664
000010 67 85 0e 40 fd 46 32 bf 1c c5 32 bf 9c 17 0f bf
       2.2268922 -0.6963957 -0.69832015 -0.558954
000020 b6 6d 21 3e 88 93 14 be 18 58 98 3f 63 30 d3 be
       0.15764508 -0.14509404 1.1901884 -0.41247854
000030 6e 49 07 bf 46 38 e3 be 47 46 ae bd e9 9c 4b 3f
       -0.5284642 -0.4437887 -0.08509498 0.795363
000040 7f 7d 08 be 12 86 a2 3e 35 e6 b6 3f 84 cc 30 3f
       -0.13329123 0.31742913 1.4289004 0.69062066
000050 ff a8 d8 3e 24 42 bd 3f db 4e c6 3e fc 04 3c 3f
       0.42316434 1.478581 0.38732037 0.73445106
000060 94 85 e7 3e e6 ec 7b 3e 28 76 89 3f 61 39 e8 bd
       0.452191 0.24602088 1.0739183 -0.11339069
000070 d5 cd 64 3f 21 9a 9a be 24 97 fb 3e 02 13 80 3f
       0.89376575 -0.30195716 0.4913875 1.0005801
000080 f5 96 46 be 78 dd 55 3f fc 35 7c 3f 48 c3 89 bf
       -0.19393523 0.8354106 0.98519874 -1.076272
000090 f4 3f c6 3e cf 28 91 3f 6e 79 0d be aa ea 51 3f
       0.38720667 1.1340579 -0.13815853 0.81998694
0000a0 60 1f c5 be cd f9 1d 3f 0f cd 5b bf e9 c5 9c bd
       -0.385005 0.6170929 -0.8585977 -0.07654936
0000b0 1b 62 e2 3f e8 55 1d be e3 5a dc 3f e0 74 50 be
       1.768619 -0.15364802 1.7215236 -0.20357084
0000c0 3a 7a 7b bd bb a5 91 3f 56 3f 48 bf 03 c4 f9 be
       -0.06139586 1.1378702 -0.7822164 -0.48782358
0000d0 d6 34 84 3d 73 c0 36 3d 14 15 83 bf e6 73 bf 3f
       0.0645539 0.044617128 -1.0240808 1.4957244
0000e0 18 ad 01 3f ac 24 07 bf 3e 4b 71 bf 30 72 7d 3f
       0.50654745 -0.5279033 -0.94255435 0.9900236
0000f0 9c 8b 84 3f 43 7e 0c bf bf 1d 14 3f 38 dc af bd
       1.0355105 -0.5488016 0.5785789 -0.08586925

fc3.weight f4 [16, 64]
000000 75 4b 24 be 3a 7b 23 be 10 5a d4 bd 2d c7 2c be
       -0.1604441 -0.15964976 -0.103687406 -0.16872855
000010 b8 e2 74 bd 98 96 de bc 9c 8b cd bd 98 5e 61 be
       -0.05978653 -0.027171418 -0.10036394 -0.22008741
000020 51 87 61 3b 00 2d e5 3c 5e 6d 37 bc c6 1e 92 3d
       0.003441293 0.02797556 -0.011195509 0.07134776
000030 78 33 81 bc 10 16 90 bd 68 42 e9 bd 46 9b 64 be
       -0.015771613 -0.07035458 -0.11389619 -0.22324857
000040 60 af 1c 3d e6 bc 31 be 69 34 96 bd b2 0d 9b be
       0.038253188 -0.17357215 -0.07334215 -0.30283886
000050 7f e5 87 be 3e be 94 bd fa 78 a7 bd 26 e5 0a be
       -0.2654228 -0.07262848 -0.08177371 -0.13563976
000060 0c 32 8a be 53 e8 59 3d 2d 0a de bd 9c 4f 5b bd
       -0.26991308 0.053200077 -0.108417846 -0.05354272
000070 0a 99 ac bd 3a 83 a9 bd 2a 35 9b bd 0d 6f 06 be
       -0.084276274 -0.082769826 -0.075784996 -0.131283
000080 f1 cf 89 3d 09 5c 05 be 08 4f 33 bd 9a ed a4 bd
       0.06729115 -0.1302339 -0.043776542 -0.080531314
000090 54 2c e2 bd 80 a2 44 bd a2 42 84 3b 78 70 ab bd
       -0.11043611 -0.048006535 0.0040362636 -0.08371061
0000a0 ea 58 8c bd 4a 6b ce bd 98 cd f8 bd 4f 4c c9 bd
       -0.068528965 -0.100790575 -0.12148589 -0.09829008
0000b0 85 77 01 be a7 f6 6b be 00 0c 77 3c ba 99 90 3d
       -0.1264325 -0.23043309 0.015078545 0.07060571
0000c0 94 47 1b bd 39 82 81 bd 72 82 d9 3d 82 a0 b0 3d
       -0.03791006 -0.06323666 0.106205836 0.086243644
0000d0 3c 89 8f bc 4d f9 24 be 73 ae aa be c4 3b 18 be
       -0.017521493 -0.16110726 -0.3333622 -0.14866549
0000e0 c3 5e b4 bb 44 86 22 bd e7 bb 67 3d d1 db fd bd
       -0.0055044605 -0.039678827 0.056575682 -0.12395442
0000f0 f3 be 81 be 60 be 92 3c 2b 19 b6 bd b6 78 e2 3d
       -0.25340995 0.017913043 -0.08891519 0.1105818
000100 e7 69 17 3e 60 ee b5 3e d9 ba a2 3d d8 17 8f be
       0.14786492 0.35533428 0.079457946 -0.2794788
000110 0e 7c b5 be f3 9f 1d 3e 02 2f d4 be b4 96 a4 bd
       -0.3544621 0.15393047 -0.41442114 -0.08036557
000120 0f 94 06 3f 3e 8d 83 be f0 d3 a1 3e b0 17 fd bd
       0.5256967 -0.25693697 0.31607008 -0.12358034
000130 13 28 94 3d 8e b0 5d bc bd 53 25 3d 3e 99 3e bf
       0.07234206 -0.013530863 0.040363062 -0.7445258
000140 96 65 02 be 04 a7 48 bf fc b6 88 bd a4 47 99 3c
       -0.12734064 -0.78379846 -0.066755265 0.018710919
000150 71 2c 44 bf 4d b6 30 3f e9 f8 42 bf 44 f9 73 3e
       -0.7663031 0.6902817 -0.76161057 0.23825556
000160 56 04 68 3d ff 5e 2c be e2 a1 00 3f 55 7b 67 bd
       0.05664476 -0.16833113 0.50247014 -0.056514103
000170 0f 4e 25 3e fe c8 31 3e fd 22 ee bc 4c 70 8e 3e
       0.16143058 0.17361829 -0.029069418 0.2782005
000180 a5 ef db bd 80 ec a8 bd d0 76 29 3e 38 2e 6f 3f
       -0.10739068 -0.08248234 0.1654923 0.934299
000190 16 7a 2a 3d 26 ad b4 3d 5f 8b 95 be b1 a3 6b 3d
       0.041620336 0.08822088 -0.29207894 0.057529155
0001a0 c1 c2 39 bc 28 cf da be b9 cf 4b 3f 79 a1 41 bf
       -0.011337937 -0.42736173 0.79613835 -0.7563701
0001b0 b1 7a 80 be 2a b4 8a be b6 c6 46 3d bd 62 0e bd
       -0.25093606 -0.2709058 0.04852935 -0.034762133
0001c0 96 22 48 bb 23 da dc 3e 4e 85 c4 3e db b7 06 bc
       -0.0030538193 0.43135175 0.38382953 -0.0082225455
0001d0 b8 a5 90 bf f1 84 12 3f af 07 c6 be 95 19 93 3e
       -1.1300573 0.572341 -0.38677737 0.28730455
0001e0 bd 91 ae 3d c5 e6 31 3e f3 d8 e9 3e 00 0d 37 3d
       0.08523891 0.17373188 0.45673332 0.044690132
0001f0 7a a7 ee 3e 33 68 fe 3e b9 a3 ab be 9e 2b 2a 3d
       0.4661215 0.49688873 -0.33523348 0.041545503
000200 bd a3 72 3e 9c 13 1b be 1c 2b 93 bd 4b 05 53 3e
       0.23695274 -0.15144199 -0.07185957 0.20607488
000210 dd 6f c2 3e 03 4e 18 be 76 e4 96 3e 51 38 51 3c
       0.3797597 -0.14873509 0.29471177 0.0127697745
000220 98 2e 4b 3d c8 e6 8a bc c8 c8 cb 3d ec 71 ab bf
       0.049604982 -0.016955748 0.09950405 -1.3394141
000230 d1 2d e8 be fc 81 16 3e 26 ff 93 3d 3e 03 60 bd
       -0.45347455 0.14698023 0.072264 -0.054690592
000240 65 34 dd bd ec d3 62 3e 23 10 7e 3e a0 f1 2a 3e
       -0.10801009 0.22151154 0.24810843 0.16693735
000250 6e a8 65 3e 0e af 69 be c1 8e ed bc 9f 92 95 bc
       0.22427532 -0.22820684 -0.028998734 -0.018258391
000260 2d 04 46 bd 9a 06 df 3e b7 56 8a bd b8 e9 83 3d
       -0.048343826 0.43559724 -0.06754821 0.06441063
000270 3d 2f e5 3e 25 9a bb 3d cc 99 6a 3e 54 d0 0f 3e
       0.44762602 0.0916026 0.22910231 0.14044315
000280 0f 44 c0 be 46 4e fa be 91 09 c0 3d 90 99 0f be
       -0.37551925 -0.48887843 0.09376825 -0.14023423
000290 11 b1 88 3e 66 8b 08 3c 7c 2c 00 bf 22 df 4b be
       0.2669759 0.008334016 -0.5006788 -0.19909337
0002a0 cd 97 ef bb 85 c9 2c 3b 5e 21 0b 3f 9a 17 10 3c
       -0.0073117972 0.0026365232 0.5434779 0.00879469
0002b0 a9 5d b0 be eb 12 91 be c9 6a 05 bf e8 07 1d be
       -0.34446457 -0.28334746 -0.52116066 -0.15335047
0002c0 94 7f 48 3c 8a 07 1f 3d 9b 85 6a be 2c e6 c8 bd
       0.012237448 0.03882555 -0.22902529 -0.09809527
0002d0 59 44 1d 3d ee 6e 0d be 47 80 ea be 78 60 da 3b
       0.03839526 -0.13811848 -0.45800993 0.006664332
0002e0 9f 61 a4 3e a0 bd b2 bc a0 0b 61 3e 3d 79 59 be
       0.3210573 -0.021818936 0.21977091 -0.21237655
0002f0 42 e5 80 bf cb b5 96 3d a3 ad 99 3e 0c 9a cb 3e
       -1.0069964 0.07358893 0.30015287 0.39765966
000300 9e ad c0 3e ff 8f 6b be 5c 0b 11 bd 0c a8 2d be
       0.3763246 -0.23004149 -0.035411224 -0.16958636
000310 88 fd 10 3f 24 66 0c bf 88 47 9d 3e 2a 14 f4 bd
       0.5663686 -0.54843354 0.30718637 -0.119179085
000320 82 ed 39 bc a7 99 96 3e 3c a6 e8 3d 89 2e f6 3d
       -0.01134813 0.29414102 0.11359832 0.120205946
000330 fd fb 22 3e 35 a2 52 bc cd 17 ae bb 8d d3 ba 3e
       0.15916438 -0.012856056 -0.005312896 0.36489525
000340 11 c5 12 3d a9 d7 ad 3d a9 73 43 3e d1 4e 22 bc
       0.03583247 0.084883995 0.1908709 -0.009906487
000350 41 e3 16 bd 0b 5f d0 be 8c 57 ee bd d7 eb 93 be
       -0.03683782 -0.40697512 -0.11637792 -0.2889087
000360 a0 8a 3d be 9b 81 c1 3d 69 bd 71 3e 57 0a 92 3e
       -0.18509912 0.094485484 0.2360741 0.28523514
000370 3f bc e0 3c e8 94 9e 3c 58 db 36 bd d1 fc cc be
       0.027433513 0.019358113 -0.044642776 -0.40036634
000380 92 cc 46 3e a0 8c 2a be 6c e2 6d ba f1 f4 c2 be
       0.19413975 -0.16655207 -0.0009074572 -0.380775
000390 14 be ce be b7 ec bb 3e 87 18 2f be ac ee 00 bf
       -0.40379393 0.36704037 -0.170992 -0.50364184
0003a0 9b 30 dd bd 6b 2e 3b 3e a3 3b 23 3d 1f 25 c0 be
       -0.108002864 0.18279426 0.039851796 -0.3752832
0003b0 79 71 22 bf 45 3d ea 3e dd 59 30 be b7 6c 67 3e
       -0.63454396 0.4574987 -0.1722178 0.22600065
0003c0 02 07 54 3d 22 cf e9 3d 0b db ec 3c 0b ee 75 bf
       0.051764496 0.114164606 0.028913042 -0.9606635
0003d0 7c ba 4a 3e 2b 5f 78 3e 9b 9d 0e bf 3e e6 1a 3e
       0.197977 0.24255054 -0.55709237 0.15126893
0003e0 ec 28 29 be 74 a5 81 3e 21 52 8e 39 d7 af 8e 3e
       -0.16519517 0.25321543 0.0002714554 0.2786853
0003f0 20 e8 81 3e d0 2d 0b be 6d ed 98 3c ab 8f ab be
       0.2537241 -0.13591695 0.018667901 -0.33508047

fc3.bias f4 [16]
000000 1d ea 45 be ad 68 6a 3f e5 40 bc 3e dd 46 81 3f
       -0.19327588 0.9156597 0.3676826 1.0099751
000010 41 cd 84 be c3 d4 4f 3f 06 a5 93 3f 20 fc 78 bf
       -0.25937846 0.81184024 1.1534736 -0.9725971
000020 fc 69 e5 3e 77 8f 38 3f 41 ee 5b bf 74 63 00 3f
       0.44807422 0.7209391 -0.8591042 0.50151753
000030 b3 bf 26 be 2f 03 57 3f 87 a9 bc be 3a 8c d5 3e
       -0.16284065 0.8398923 -0.3684809 0.41708547

clf.weight f4 [10, 16]
000000 6f 93 e5 bd 32 5a 8c 3e 58 60 bd bc 08 53 af be
       -0.11209761 0.27412564 -0.02311723 -0.34243035
000010 9b 24 ce bd da 1f 56 3e 1c 3b 2f 3e 2f bb c6 3e
       -0.10065576 0.20910588 0.17112392 0.38814685
000020 e1 f6 09 3d a8 0d 49 be 38 85 1e 3d 36 3f 85 be
       0.033682708 -0.19634116 0.038701266 -0.2602479
000030 5e f5 cf bd 0c e2 92 3e cc fa 6b be 0b 9e 86 bf
       -0.10154222 0.28688085 -0.2304489 -1.0516981
000040 b8 e9 00 3e b3 21 d6 3e 0f 88 02 be 86 86 1a be
       0.12589157 0.41822585 -0.12747215 -0.15090379
000050 1f e3 83 be a2 78 50 3d 2b be c0 be 71 78 cc bd
       -0.25759217 0.050896294 -0.37645087 -0.0998391
000060 34 3f 24 bf c4 5f c8 be 1b f9 5f be 15 21 9f 3e
       -0.6415894 -0.39135563 -0.2187237 0.31079927
000070 bb 7a 42 3e 6d d0 cc be de a5 bd 3e 04 5f 7c be
       0.1899213 -0.40002766 0.3704061 -0.2464562
000080 19 0f 40 be 56 f1 7c be 49 bb 92 3d ea be f9 3d
       -0.1875576 -0.24701437 0.07164628 0.12194617
000090 79 58 c6 3d 3f 8a 9e 3e c9 39 99 3e f4 93 9a be
       0.096848436 0.30964848 0.299269 -0.30191004
0000a0 18 9b 2a bf bd 74 60 bd 92 ea 22 bf 0b c8 c3 3d
       -0.66642904 -0.05479883 -0.63639176 0.095596395
0000b0 cb 2c fd bd fa 38 b3 be 0e 19 22 bf c2 74 f0 be
       -0.12362059 -0.35004407 -0.6331948 -0.4696408
0000c0 3b 9e 3d 3d ef 66 9e 3e 29 ad 51 be 15 46 e3 be
       0.04629348 0.30937907 -0.20476212 -0.44389406
0000d0 a0 65 05 bd b6 f5 cc 3d 86 a7 c4 be d8 e4 b4 bc
       -0.03256762 0.10007803 -0.3840906 -0.022081777
0000e0 51 6e f5 be 1b 4c 22 3e a5 6d ec be ed 64 9c 3e
       -0.47935727 0.15849344 -0.46177402 0.3054575
0000f0 f7 2d d2 be d4 57 67 3e 1b 6c 4e 3c aa a5 13 bf
       -0.41050693 0.22592098 0.012599017 -0.5767466
000100 39 e1 9d 3c 84 35 e8 bd 2e eb 4d 3e 86 ad 8b 3d
       0.019272434 -0.11338332 0.20109245 0.06820206
000110 e7 9c a2 3e 11 12 1a 3e 6a 1e a8 bd 8c 86 61 bd
       0.31760332 0.15045954 -0.08208926 -0.055059955
000120 17 dd ad be 38 23 40 3d 41 02 b4 be 61 82 04 3e
       -0.3395774 0.046908587 -0.3515797 0.1294036
000130 53 b0 5e bc b3 ff 42 bd b6 8e aa 3e 73 93 d3 be
       -0.013591844 -0.047607135 0.33312005 -0.41323432
000140 ad 20 b7 3d 6c e9 01 bf 5e b1 cf 3d 3c 91 3c bd
       0.08941779 -0.507468 0.10141252 -0.046036944
000150 d7 b8 49 bf 0d 78 d3 bf 32 20 9f be 1d 8b 16 bf
       -0.7879767 -1.6521012 -0.3107925 -0.5880602
000160 64 cc 67 3e 97 69 f0 3d d1 f5 f6 bd a1 aa f8 be
       0.22636563 0.1173889 -0.120586045 -0.4856768
000170 80 39 cb 3e 5e 54 0d 3b f6 72 e2 be 84 1f 67 be
       0.39692307 0.002156518 -0.44228333 -0.22570616
000180 40 0e b0 be 53 77 6e 3e de 3e 87 3e 52 df f0 3c
       -0.34385872 0.23287706 0.2641515 0.029403362
000190 5a 90 1f 3b c8 29 3e 3e 3d 2e 19 3e 71 ca 36 be
       0.0024347515 0.18570626 0.14959045 -0.17850663
0001a0 d4 24 01 bf ce a7 68 3e a9 ee 9a 3c 2d e4 7c be
       -0.5044682 0.22720262 0.01891263 -0.24696417
0001b0 72 b8 d0 be 5b ea 3f 3d 1d 01 f2 be f7 f4 dd be
       -0.4076572 0.04685436 -0.47266474 -0.43350956
0001c0 3c e4 b8 bc 2d f0 17 bf 05 35 75 be 6e 89 41 3e
       -0.022569768 -0.59350854 -0.23946007 0.18900082
0001d0 dd 2e 6b bf 13 48 a9 bf fc ce 67 be 59 db ec be
       -0.9186838 -1.322512 -0.22637552 -0.462611
0001e0 15 bb 2f 3e 3e 21 03 3e bd 37 a9 bc 12 19 a7 be
       0.1716121 0.1280565 -0.02065646 -0.32636315
0001f0 dd 1b d5 bd 55 da 1a be c5 2e 47 be 8d 52 a0 3e
       -0.10405705 -0.1512235 -0.19451435 0.3131298
000200 27 5a 06 3e 80 e3 06 be ab 8d d4 3d 61 11 24 3e
       0.13120328 -0.13172722 0.103785835 0.16022255
000210 5d 31 c0 be 1d 6a 3b bf df a3 5d 3e 55 a4 01 3e
       -0.3753766 -0.7320879 0.21644543 0.12660344
000220 8d b1 af be a1 78 8e be 51 ab 53 be 72 72 99 3e
       -0.34315148 -0.27826408 -0.20670821 0.29970127
000230 25 fa cd 3b 31 60 20 3e ec 3c 6a be 3e 18 ab be
       0.006285923 0.15661694 -0.22874802 -0.33416933
000240 d7 21 92 be 63 f1 28 bf 1a 7d fb be 5e ad 1c be
       -0.28541443 -0.65993327 -0.49118882 -0.1530051
000250 6d 8e c4 be 86 90 b5 bf ed d4 37 be 5a b1 af be
       -0.38389912 -1.418473 -0.17952318 -0.34314996
000260 16 68 b4 bd 91 17 22 3e 4a e4 4c be 7b a1 4f bd
       -0.08808915 0.15829302 -0.2000896 -0.05069111
000270 27 98 6a 3e a9 9c 16 3e 57 d4 ab bd db b1 94 3e
       0.22909604 0.14708199 -0.0839011 0.29041943

clf.bias f4 [10]
000000 2e c0 2e be f2 84 b6 bf 76 24 35 3e f3 3a d0 3e
       -0.17065498 -1.4259322 0.1768969 0.40669975
000010 e7 b9 b9 be bb a3 32 bd 0c 82 04 3e 67 01 a4 3e
       -0.36274645 -0.043613177 0.12940234 0.3203232
000020 88 a0 fc bd 4a 2c a7 be
       -0.123353064 -0.32650977
