models/MLP2.pt (torch_old, 875762 bytes, 8 tensors)

fc1.weight f4 [256, 784]
-0.0046775695 -0.022172982 -0.032421384 -0.0061270436 0.019473733 0.018409133 -0.007920484 -0.015091975
0.04609264 0.018399393 0.013325758 0.041435223 -0.015033888 0.039667204 0.023168346 -0.00804842
-0.0054194517 -0.02376799 0.01757764 -0.01693128 0.022522245 -0.021776486 -0.010759734 -0.017835353
-0.005519087 -0.038374167 0.021512292 -0.031524673 -0.02420264 -0.009006742 0.01927717 0.030384667
-0.018055627 -0.030047193 -0.036625084 0.018528596 0.024976697 -0.020937061 -0.0076615 0.005772547
0.031612948 0.01423481 -0.006476347 -0.003974513 0.018694125 0.02397504 0.0046440703 0.044747867
0.004172855 -0.03984376 -0.02580976 -0.026255032 -0.00931325 0.020330029 0.022749238 -0.006289257
-0.0002598966 0.003471789 -0.023632076 -0.012102786 0.030478328 -0.0059046214 -0.0065791393 -0.020233363
0.005003417 0.016990433 0.008580379 0.0032016695 -0.0006230631 0.024151376 0.022778356 -0.01288685
0.0014888494 -0.04127907 0.01052708 -0.004859169 -0.0046858196 0.028561214 -0.031944547 -0.00036789314
-0.018397732 -0.033396717 0.022126226 -0.019208817 -0.021951843 0.031514175 0.026676923 0.004862714
-0.021616377 0.020142261 -0.039649814 -0.034943134 0.016611619 -0.002631337 -0.015900934 0.0051954235
0.017306287 -0.0031895812 -0.007751458 -0.00031812742 -0.009979694 0.033655874 0.03298772 -0.037290175
0.011281477 0.030724019 0.015573799 0.01652544 0.0025809067 -0.027159113 -0.00027885617 0.01791977
0.00941049 -0.03607991 -0.0152019495 -0.03537856 0.028787293 -0.020116089 -0.0067401393 0.04210019
0.02647991 0.04104845 -0.008234318 0.020089401 0.017354006 -0.026128238 0.038476184 -0.031697743
0.027767768 -0.01721199 -0.046739735 -0.019735523 0.02129659 -0.0036938866 -0.0384775 -0.028878009
-0.03072374 0.0088605415 0.026414003 0.020617668 0.0093400385 0.017869212 -0.01833458 0.009546394
-0.01659909 -0.008978798 -0.0036338924 -0.011892123 -0.0055376785 0.009227668 -0.025651464 0.028647354
0.030831251 -0.014542219 -0.015624934 -0.0051579005 -0.019853052 0.0053273183 0.00600188 0.03536079
-0.0015356035 0.026825987 -0.036313053 -0.038375594 0.015789846 -0.045332905 -0.02946482 -0.0015137057
0.03086749 -0.035718523 -0.023633745 -0.021257233 0.027094973 0.016871205 -0.007641733 0.010436171
-0.004176018 0.024885908 -0.017534984 -0.013153956 -0.045464844 -0.032840863 -0.015386213 0.022239022
-0.02097116 -0.021798916 -0.01947479 0.010048524 -0.032930158 0.0068161683 -0.0030884389 -0.008399408
-0.015337883 -0.05275398 -0.01569174 -0.0009832277 -0.036141768 -0.03304131 -0.013744835 -0.013655281
-0.00578158 -0.013626385 -0.017390301 -0.0031709669 0.045124 0.035436496 -0.022801306 -0.03372206
-0.036759846 0.00085359236 0.0019521642 0.0053503946 0.015416663 -0.015215829 0.006616802 -0.02365513
0.008097584 0.03569764 -0.03807387 -0.0015289304 0.0033776138 -0.051098935 0.0011604178 0.0029825016
-0.023776555 -0.008926447 -0.02622306 0.009490898 -0.018048765 -0.015923917 -0.04100803 0.013164131
0.0057473346 -0.0002940671 0.0139421895 0.008775503 -0.028801268 0.014225738 0.02824369 -0.00090708374
-0.0029304568 -0.01836012 -0.02468364 0.0057562003 0.027802715 -0.02072807 -0.00035774132 0.0035506212
-0.028783359 0.011390745 0.0043573235 -0.017119642 0.013411435 -0.025696777 -0.013821839 0.025236186
00000000: 4c46 99bb 1da4 b5bc 49cc 04bd 5ec5 c8bb
00000010: 6187 9f3c c0ce 963c ebc4 01bc 5544 77bc
00000020: a3cb 3c3d 53ba 963c 4854 5a3c fbb7 293d
00000030: b250 76bc 147a 223d 8bcb bd3c 85dd 03bc
00000040: a895 b1bb 16b5 c2bc fcfe 8f3c 78b3 8abc
00000050: 9280 b83c 9a64 b2bc 9849 30bc 721b 92bc
00000060: 75d9 b4bb 3b2e 1dbd 8c3a b03c 0420 01bd
00000070: 9d44 c6bc 0491 13bc 28eb 9d3c 44e9 f83c
00000080: 65e9 93bc 8825 f6bc 2f04 16bd 48c9 973c
00000090: ee9b cc3c 3384 abbc 520d fbbb a227 bd3b
000000a0: 947c 013d 1f39 693c 8937 d4bb a23c 82bb
000000b0: 6c24 993c 4e67 c43c 492d 983b 8a49 373d
000000c0: 72bc 883b 3633 23bd fd6e d3bc cb14 d7bc
000000d0: 9a96 18bc 298b a63c 9c5c ba3c 1d16 cebb
000000e0: bb42 88b9 f486 633b 0e98 c1bc c44a 46bc
000000f0: b0ad f93c 8e7b c1bb d295 d7bb 70c0 a5bc
00000100: b4f3 a33b 852f 8b3c b894 0c3c 1ad3 513b
00000110: 0f55 23ba 1bd9 c53c ad99 ba3c 5e23 53bc
00000120: 7f25 c33a 3e14 29bd c679 2c3c aa39 9fbb
00000130: 818b 99bb 35f9 e93c 49d8 02bd c8e1 c0b9
00000140: d7b6 96bc ffca 08bd 0f42 b53c cf5b 9dbc
00000150: 5ad4 b3bc 0215 013d 9089 da3c 6757 9f3b
00000160: d414 b1bc 6201 a53c d867 22bd 8820 0fbd
00000170: 1715 883c 8272 2cbb ad42 82bc 5f3e aa3b
00000180: eac5 8d3c 4b08 51bb f1ff fdbb 57ca a6b9
00000190: df81 23bc beda 093d 221e 073d 95bd 18bd
000001a0: f2d5 383c f0b0 fb3c 3f29 7f3c 5c60 873c
000001b0: 6e24 293b ca7c debc 7133 92b9 7bcc 923c
000001c0: 752e 1a3c 87c8 13bd 9911 79bc 1ce9 10bd
000001d0: 54d3 eb3c 7fca a4bc 63dc dcbb 4071 2c3d
000001e0: 65ec d83c 6b22 283d 3ce9 06bc 8792 a43c
000001f0: fd29 8e3c e30a d6bc 3499 1d3d 7ed5 01bd
00000200: 3b79 e33c 2900 8dbc 2a72 3fbd 64ac a1bc
00000210: 3076 ae3c 2215 72bb 959a 1dbd 9391 ecbc
00000220: 5ab0 fbbc ce2b 113c 2e62 d83c 62e6 a83c
00000230: f606 193c 7462 923c 6732 96bc 7b68 1c3c
00000240: d1fa 87bc cf1b 13bc 9926 6ebb 2ed7 42bc
00000250: 6a75 b5bb a52f 173c 0523 d2bc dbad ea3c
00000260: d291 fc3c 7d42 6ebc b9ff 7fbc 9b03 a9bb
00000270: dea2 a2bc c990 ae3b 6bab c43b 7ad6 103d
00000280: 4e46 c9ba 2cc2 db3c ffbc 14bd ba2f 1dbd
00000290: b559 813c ffae 39bd 3560 f1bc 8967 c6ba
000002a0: d2dd fc3c 964d 12bd 8e9b c1bc a623 aebc
000002b0: 47f6 dd3c 7b35 8a3c 8167 fabb 79fc 2a3c
000002c0: fad6 88bb 88dd cb3c 87a5 8fbc b183 57bc
000002d0: 5839 3abd 2484 06bd 7416 7cbc 9c2e b63c
000002e0: b6cb abbc a493 b2bc 9889 9fbc 90a2 243c
000002f0: c6e1 06bd 2a5a df3b 6867 4abb ac9d 09bc
00000300: be4b 7bbc 8f14 58bd f78b 80bc a6df 80ba
00000310: 6409 14bd 5356 07bd 0432 61bc 66ba 5fbc
00000320: 6973 bdbb 3341 5fbc 1b76 8ebc ffcf 4fbb
00000330: f2d3 383d dc25 113d cec9 babc 2520 0abd
00000340: 7e91 16bd 9dc3 5f3a c3df ff3a 5d52 af3b
00000350: 2c96 7c3c d04b 79bc c2d1 d83b 67c8 c1bc
00000360: bbab 043c b037 123d 59f3 1bbd 6466 c8ba
00000370: f55a 5d3b 1e4d 51bd 2919 983a 1376 433b
00000380: 0dc7 c2bc 3b40 12bc bed1 d6bc b67f 1b3c
00000390: 01db 93bc e072 82bc 09f8 27bd 5eae 573c
000003a0: 2354 bc3b 052d 9ab9 c86d 643c 21c7 0f3c
000003b0: a3f0 ebbc 1213 693c 505f e73c 5cc9 6dba
000003c0: e80c 40bb f667 96bc 5835 cabc 829e bc3b
000003d0: 85c2 e33c eacd a9bc 3a8f bbb9 8ab1 683b
000003e0: 14cb ebbc 3fa0 3a3c e1c7 8e3b 7e3e 8cbc
000003f0: a3bb 5b3c 0c82 d2bc ff74 62bc 1ebc ce3c

fc1.bias f4 [256]
-0.020236567 0.09490777 -0.005223328 -0.019410754 0.07318358 -0.06542212 -0.06867892 0.023033237
-0.037623078 -0.06334089 -0.022025991 0.18256073 -0.056408823 -0.05582506 0.04068329 0.021494258
0.0151498765 -0.06120971 -0.04845859 0.0019443231 0.001414086 -0.03917512 -0.07738977 -0.029651616
-0.015140726 -0.05929282 -0.0012103143 0.010902171 0.07952938 0.004376927 0.040659085 -1.1389845e-05
0.01631233 0.043080356 -0.069536425 -0.040528893 0.06424491 0.07110226 0.00084180903 -0.008024362
-0.07566488 0.22327371 -0.035858937 0.06088567 -0.032778237 -0.0035749816 0.008421888 0.021106645
-0.13322067 -0.004308044 0.05826286 0.04781044 0.08479649 0.01640751 -0.03582477 0.018434618
0.0736664 -0.0065091825 0.047789488 -0.009091767 0.033888835 0.08462053 0.02022323 -0.027835373
-0.11102075 0.053502835 0.0033092152 0.011920669 0.0029862178 0.0891915 0.13652134 0.0005597556
0.027099956 0.12117181 -0.024177233 0.013486589 0.024092473 0.04762868 -0.019478153 0.0033208604
-0.16932058 -0.014390519 0.054494355 -0.031769194 -0.010529482 0.011891609 -0.02155914 0.051476564
-0.0039265947 0.03356425 0.00993679 -0.07440694 0.011227903 0.04074708 -0.021708734 -0.03285354
-0.0011972119 0.22823389 0.019001404 0.026168406 0.022470316 0.121586226 -0.0716973 0.006619076
0.019221313 0.0076833414 0.034412593 0.07656378 0.035854004 -0.023295308 0.04843505 0.05423874
0.120038666 0.06434095 -0.0054363417 0.05385285 0.037160397 0.1346975 0.080128595 -0.02535563
0.020573214 -0.0010826858 0.008898554 0.036877003 0.13489322 0.0038609945 0.013609155 0.013116691
-0.15328483 0.020794708 0.03525102 0.033039324 -0.016864575 0.052140355 -0.055063944 0.02793001
0.006569492 -0.009461923 -0.0873009 0.02970903 -0.028052473 0.1100048 0.12843962 -0.024258085
0.0135896215 0.05764976 0.038688835 0.05103801 0.07497207 0.08747536 -0.09934073 0.06604794
-0.0070527955 -0.0009281815 0.07364973 0.14144357 -0.03801843 0.06799833 0.09480378 0.019518685
0.06794643 0.047639653 0.048684083 -0.098100275 0.07052233 0.0504796 0.022383275 0.058426727
0.027651317 -0.014121069 -0.005151816 -0.0407287 -0.029587846 0.057539843 -0.058295686 0.015704984
0.021910785 0.05024396 0.045120966 -0.020456651 0.01905557 0.054472733 0.05948905 -0.13403238
0.041364487 0.043916635 -0.023975627 -0.01801008 -0.018304382 -0.004242923 -0.00033962983 0.036759537
-0.018643687 0.021485496 0.041038904 -0.004453974 0.0026727444 0.049548544 -0.1025644 0.019727852
0.04809491 -0.025609884 -0.0069368295 -0.06367823 0.03390295 0.013532948 0.05019135 0.10073957
-0.026954927 0.0063026207 -0.04527224 -0.04632691 0.008560172 0.005392226 -0.04604086 0.032347634
0.082927406 -0.08970679 -0.07662352 0.0044670403 -0.0025901354 0.03753198 0.028277772 0.043058526
0.0446313 0.033039514 -0.024314728 0.022296712 0.045012925 -0.058983352 -0.028271923 0.037262876
-0.010586246 0.06989931 -0.016239157 -0.030232232 -0.00064167834 0.041466508 -0.06678665 0.021511484
0.07326459 -0.019421143 0.028028203 -0.052978974 0.022396285 0.043368787 -0.0073364982 0.089634754
0.015361341 0.0009819432 -0.027085565 0.023355918 0.09500573 -0.021094386 0.02421417 -0.0121239275
00000000: 28c7 a5bc 015f c23d 7328 abbb 4d03 9fbc
00000010: 46e1 953d 08fc 85bd 89a7 8cbd 33b0 bc3c
00000020: a81a 1abd deb8 81bd da6f b4bc 33f1 3a3e
00000030: f00c 67bd d1a8 64bd 86a3 263d ba14 b03c
00000040: 3037 783c 08b7 7abd 847c 46bd a8d8 fe3a
00000050: da58 b93a 1776 20bd 877e 9ebd f2e7 f2bc
00000060: cf10 78bc 07dd 72bd 69a3 9eba 059f 323c
00000070: 4de0 a23d 536c 8f3b 248a 263d 0317 3fb7
00000080: 6fa1 853c 0775 303d 1d69 8ebd a001 26bd
00000090: d692 833d 109e 913d d9ac 5c3a 9d78 03bc
000000a0: 30f6 9abd dda1 643e d2e0 12bd 4163 793d
000000b0: 7942 06bd 3d4a 6abb f5fb 093c d8e7 ac3c
000000c0: 006b 08be 7e2a 8dbb 09a5 6e3d e1d4 433d
000000d0: c8a9 ad3d 0b69 863c febc 12bd 3204 973c
000000e0: 69de 963d fb4a d5bb e9be 433d a2f5 14bc
000000f0: 05cf 0a3d 874d ad3d 30ab a53c 0207 e4bc
00000100: d95e e3bd ca25 5b3d 6bdf 583b e94e 433c
00000110: 6cb4 433b 08aa b63d 40cc 0b3e 90bc 123a
00000120: ba00 de3c ed28 f83d 550f c6bc dbf6 5c3c
00000130: 945d c53c 4a16 433d a690 9fbc cba2 593b
00000140: 6062 2dbe 36c6 6bbc 7935 5f3d 6a20 02bd
00000150: d983 2cbc 06d5 423c cb9c b0bc 17d9 523d
00000160: aaaa 80bb ab7a 093d ebcd 223c aa62 98bd
00000170: 3df5 373c 69e6 263d 84d6 b1bc 6f91 06bd
00000180: c4eb 9cba 25b6 693e d5a8 9b3c 205f d63c
00000190: ab13 b83c 3302 f93d 09d6 92bd d5e4 d83b
000001a0: 0476 9d3c 8ac4 fb3b 38f4 0c3d 79cd 9c3d
000001b0: a6db 123d cdd5 bebc d563 463d 7129 5e3d
000001c0: d5d6 f53d 30c5 833d 5723 b2bb ce94 5c3d
000001d0: 8035 183d 24ee 093e 761a a43d 9cb6 cfbc
000001e0: 2889 a83c e8e8 8dba 3ecb 113c 570c 173d
000001f0: 7321 0a3e bd08 7d3b eff8 5e3c 64e7 563c
00000200: b3f6 1cbe aa59 aa3c 6063 103d 3e54 073d
00000210: 9427 8abc 2091 553d bb8a 61bd 7acd e43c
00000220: e544 d73b 2e06 1bbc d0ca b2bd 5a60 f33c
00000230: 4dce e5bc 324a e13d ad85 033e e4b8 c6bc
00000240: 01a7 5e3c 2822 6c3d 2f78 1e3d 3b0d 513d
00000250: f58a 993d 4826 b33d 2773 cbbd 2444 873d
00000260: 231b e7bb 3551 73ba abd5 963d 95d6 103e
00000270: 37b9 1bbd b542 8b3d 7c28 c23d a6e5 9f3c
00000280: 7f27 8b3d cc21 433d f668 473d cce8 c8bd
00000290: 036e 903d b2c3 4e3d 215d b73c dd50 6f3d
000002a0: 0485 e23c 0e5c 67bc 91d0 a8bb 23d3 26bd
000002b0: 3662 f2bc e6ae 6b3d 75c7 6ebd bda7 803c
000002c0: 3f7e b33c 9ccc 4d3d c3d0 383d b594 a7bc
000002d0: 6d1a 9c3c cd1e 5f3d caaa 733d c93f 09be
000002e0: cf6d 293d eee1 333d 8968 c4bc e089 93bc
000002f0: 12f3 95bc 3808 8bbb 5810 b2b9 2b91 163d
00000300: a5ba 98bc 5a02 b03c 6918 283d a4f2 91bb
00000310: 3629 2f3b 6af3 4a3d 490d d2bd 4e9c a13c
00000320: 2bff 443d d2cb d1bc 584e e3bb bb69 82bd
00000330: d2dd 0a3d 4cb9 5d3c 7295 4d3d 8c50 ce3d
00000340: 94d0 dcbc 3786 ce3b 626f 39bd 49c1 3dbd
00000350: f73f 0c3c 45b1 b03b 5795 3cbd f47e 043d
00000360: d8d5 a93d 32b8 b7bd cbec 9cbd 4060 923b
00000370: 43bf 29bb 22bb 193d c9a6 e73c 235e 303d
00000380: 4fcf 363d 7154 073d ae2f c7bc 98a7 b63c
00000390: 795f 383d 8798 71bd 859a e7bc f5a0 183d
000003a0: ef71 2dbc 5f27 8f3d fb07 85bc 96a9 f7bc
000003b0: 4e36 28ba c9d8 293d 70c7 88bd da38 b03c
000003c0: bf0b 963d 1719 9fbc 679b e53c 7b00 59bd
000003d0: 6a78 b73c 78a3 313d 0267 f0bb 6d92 b73d
000003e0: 22ae 7b3c 8cb4 803a 8ce2 ddbc e954 bf3c
000003f0: 5d92 c23d 22ce acbc cc5c c63c 70a3 46bc

fc2.weight f4 [64, 256]
0.0452345 0.006881969 -0.02826234 -0.045778643 0.007159264 0.04441489 -0.04657374 0.012971006
0.051291995 0.02022174 -0.010139602 -0.047923416 -0.022766491 -0.047054622 -0.04358008 -0.058057696
0.033502184 -0.052828707 -0.031136304 -0.0066284253 -0.0004813606 -0.023362314 -0.002737096 -0.051839277
-0.010191246 0.044334125 -0.024168802 0.006352633 -0.03747866 0.053497728 0.027712174 0.044323634
0.027721317 0.00616824 -0.059902493 -0.028216809 0.05554965 -0.053708293 -0.017138198 -0.040136125
0.00097027305 -0.05238736 0.039489653 -0.004275592 0.0465189 -0.002712382 -0.0070252744 0.004952017
0.011624921 0.0016255502 0.016609661 0.017992618 -0.004939719 0.060923964 -0.019940289 0.030762717
0.0025107316 -0.061166734 0.014512857 -0.043238945 0.014838393 -0.026512906 -0.027541008 -0.031090036
-0.0007042799 -0.021932453 -0.055087384 0.052505177 0.061288834 -0.0029294156 0.037004214 0.051370133
0.012793712 0.03069536 -0.011654559 -0.024825176 0.022390591 0.04446607 -0.008156184 -0.05138459
0.00812891 0.047213074 -0.0453282 0.027157335 -0.011996738 -0.00058365444 -0.057751704 0.0073201335
-0.016323514 0.043633133 -0.013701137 -0.032808 0.038862597 0.045668352 0.013820593 -0.021222524
-0.04494191 -0.013562007 0.055713456 -0.050355397 0.02428346 -0.022657417 -0.06239343 -0.0011058353
-0.061438993 0.00015823376 -0.015883468 0.06195906 -0.021582639 0.025241202 -0.047761213 -0.058160126
0.050371937 -0.022778518 -0.012611216 0.015097551 -0.009194795 0.05328132 -0.048844125 0.026815645
-0.045322534 0.021107089 0.013008083 -0.042616513 -0.03202704 -0.012142784 -0.012904398 0.014871548
-0.021356434 -0.01055285 0.048625145 -0.029634258 0.02769089 -0.011587363 -0.05951647 0.05198567
-0.049622547 -0.059047848 -0.03816825 -0.055251688 0.035760365 -0.017437128 -0.04636877 0.0606962
-0.028974906 0.04678726 -0.0035025098 0.029576369 -0.012907401 -0.051822845 0.010563498 0.0045017963
0.052628253 0.060061455 -0.0031993673 0.056285072 0.05621778 -0.04047842 0.04600774 -0.013373438
-0.0450723 -0.023015982 -0.02452846 0.002699857 0.050071165 -0.033328947 0.035000917 0.0151762795
-0.015355494 0.031208873 0.0076906523 0.0029368124 -0.0014752042 0.06342153 -0.050391283 0.047997132
0.024521967 0.038354896 -0.024024064 0.01191035 0.023580125 0.048236948 -0.0045120395 -0.029741649
0.045058463 -0.0011017964 0.037140176 0.008112521 0.028964356 0.046027772 0.046752367 -0.016132386
0.03226652 -0.027883062 0.025467385 -2.2212143e-05 -0.019089805 0.029039957 0.009930869 -0.027323479
0.04981208 0.01791304 -0.04496801 -0.038425628 0.007915882 -0.0090311505 0.0010654728 0.020893196
-0.027292565 -0.026759004 -0.047536638 -0.028650109 -0.044973012 0.016376372 -0.03125501 -0.036803182
0.04108598 0.05728009 0.0401429 0.013390029 0.04895702 -0.008634577 0.027214885 0.007449705
0.026386548 0.020867242 0.028458465 0.024513282 0.047651876 0.017055523 0.02965331 -0.059924066
-0.05677401 0.027841983 0.05080618 -0.008916361 0.028487062 0.060804658 0.013737696 -0.0062792036
-0.022322211 0.03012515 -0.036666505 -0.015956072 0.014534459 -0.0076265004 0.023243738 0.049147386
-0.030542556 0.044666022 0.002848181 0.05543343 -0.0018511604 -0.0564234 -0.020921122 -0.013673354
00000000: d047 393d 2482 e13b 6c86 e7bc 6382 3bbd
00000010: 4298 ea3b 63ec 353d 1bc4 3ebd 5884 543c
00000020: 8e17 523d 10a8 a53c 9320 26bc 584b 44bd
00000030: cb80 babc 59bc 40bd 0781 32bd e8cd 6dbd
00000040: 9639 093d ea62 58bd 9011 ffbc 4333 d9bb
00000050: 205f fcb9 5362 bfbc da60 33bb 6c55 54bd
00000060: 2ff9 26bc b397 353d a7fd c5bc bf29 d03b
00000070: 3983 19bd 6f20 5b3d a404 e33c b38c 353d
00000080: d117 e33c f31e ca3b 515c 75bd f026 e7bc
00000090: 0888 633d 3afd 5bbd 6865 8cbc c765 24bd
000000a0: ec59 7e3a 2194 56bd e7bf 213d 441a 8cbb
000000b0: 9a8a 3e3d 38c2 31bb 4634 e6bb 8844 a23b
000000c0: 7476 3e3c 6a10 d53a fc10 883c 4165 933c
000000d0: 5edd a1bb 688b 793d d159 a3bc 1802 fc3c
000000e0: 168b 243b f889 7abd 56c7 6d3c 521b 31bd
000000f0: bb1c 733c 9831 d9bc ae9d e1bc 88b0 febc
00000100: 6d9f 38ba b0ab b3bc 4fa3 61bd ab0f 573d
00000110: 000a 7b3d 70fb 3fbb bb91 173d 7d69 523d
00000120: b89c 513c d674 fb3c c3f2 3ebc 2b5e cbbc
00000130: 796c b73c 0e22 363d 84a1 05bc a678 52bd
00000140: 1f2f 053c 7f62 413d 10aa 39bd 0f79 de3c
00000150: f78d 44bc 6300 19ba 0d8d 6cbd bbdd ef3b
00000160: e4b8 85bc a8b8 323d bc7a 60bc ae61 06bd
00000170: 632e 1f3d bd0e 3b3d c56f 623c dcda adbc
00000180: 0215 38bd 2e33 5ebc cb33 643d 7641 4ebd
00000190: 1bee c63c 0c9c b9bc 4190 7fbd adf1 90ba
000001a0: 74a7 7bbd 8deb 2539 0c1e 82bc c9c8 7d3d
000001b0: 13ce b0bc a3c6 ce3c 43a1 43bd 5039 6ebd
000001c0: ce52 4e3d 049a babc 469f 4ebc b85b 773c
000001d0: c4a5 16bc 833d 5a3d c710 48bd 7cac db3c
000001e0: 1fa4 39bd c6e8 ac3c db1f 553c a78e 2ebd
000001f0: c92e 03bd 87f2 46bc f86c 53bc cba7 733c
00000200: b0f3 aebc dce5 2cbc 292b 473d 8bc3 f2bc
00000210: 01d8 e23c ecd8 3dbc 8bc7 73bd edee 543d
00000220: 0341 4bbd 28dc 71bd 5056 1cbd 984f 62bd
00000230: 7679 123d 4fd8 8ebc 2eed 3dbd 949c 783d
00000240: c85c edbc ffa3 3f3d 5d8a 65bb 244a f23c
00000250: 9079 53bc 3144 54bd 8612 2d3c ce83 933b
00000260: b990 573d 0003 763d 7aac 51bb 2d8b 663d
00000270: 9d44 663d b3cc 25bd 9d72 3c3d 441c 5bbc
00000280: bb9d 38bd 038c bcbc e9ef c8bc 16f0 303b
00000290: 6c17 4d3d ef83 08bd 1f5d 0f3d eea5 783c
000002a0: 9c95 7bbc c0a9 ff3c de01 fc3b 8977 403b
000002b0: a45b c1ba 26e3 813d 1767 4ebd a498 443d
000002c0: 4be2 c83c 061a 1d3d 1dce c4bc a123 433c
000002d0: 1b2b c13c 1b94 453d bbd9 93bb c2a4 f3bc
000002e0: 398f 383d 276a 90ba 4c20 183d 61ea 043c
000002f0: a846 ed3c 9e87 3c3d 697f 3f3d 1128 84bc
00000300: e629 043d 056b e4bc faa0 d03c 3754 bab7
00000310: 3962 9cbc 34e5 ed3c 15b5 223c 7dd5 dfbc
00000320: c007 4c3d 5ebe 923c 6030 38bd 3164 1dbd
00000330: 9eb1 013c 64f7 13bc 56a7 8b3a 3528 ab3c
00000340: a894 dfbc b335 dbbc c7b5 42bd a2b3 eabc
00000350: 9f35 38bd be27 863c 4105 00bd efbe 16bd
00000360: c649 283d 879e 6a3d e26c 243d da61 5b3c
00000370: 2887 483d 0a78 0dbc c0f1 de3c a81c f43b
00000380: 9a28 d83c c7f1 aa3c ba21 e93c 14d0 c83c
00000390: 9d2e 433d 06b8 8b3c 80eb f23c f072 75bd
000003a0: dd8b 68bd df14 e43c 241a 503d ee15 12bc
000003b0: b35d e93c 4e0e 793d 1314 613c c7c1 cdbb
000003c0: 12dd b6bc 05c9 f63c 9e2f 16bd 4fb6 82bc
000003d0: f121 6e3c b9e7 f9bb a769 be3c c54e 493d
000003e0: 6234 fabc b8f3 363d 8ca8 3a3b 2a0e 633d
000003f0: a3a2 f2ba 391c 67bd c662 abbc 3406 60bc

fc2.bias f4 [64]
-0.05285058 -0.024746235 0.07499071 -0.027743332 -0.064471744 -0.0014368049 -0.063088365 0.06970393
-0.088728465 -0.12935154 0.083303794 0.06537116 -0.018451918 0.06624094 -0.008654622 -0.024224201
0.008715483 0.10254886 0.01233105 0.0646619 -0.041226562 0.13127309 -0.101032615 -0.024939757
0.0024729392 0.07976363 0.11346892 -7.238596e-05 0.13531958 -0.019548792 0.011938796 0.016068257
0.15474086 0.16465369 0.039615292 0.034527816 -0.056588225 0.11620707 -0.10349628 0.0022937919
0.08645529 -0.0045083817 -0.018597761 -0.05415166 -0.019481506 0.054439623 0.07321328 -0.0053498223
0.049460456 -0.067810126 -0.046933442 -0.00863519 0.027160032 -0.07200456 0.03342615 0.09109618
-0.08034108 0.014068662 0.009394189 0.12233151 -0.00926076 -0.14232925 0.177218 -0.07629607
00000000: da79 58bd 9eb8 cabc bb94 993d fc45 e3bc
00000010: c309 84bd 2c53 bcba 7934 81bd efc0 8e3d
00000020: 45b7 b5bd bb74 04be 2e9b aa3d 51e1 853d
00000030: 7a28 97bc 54a9 873d 1ecc 0dbc d571 c6bc
00000040: 63cb 0e3c 2305 d23d 2c08 4a3c 756d 843d
00000050: 2fdd 28bd 746c 063e 30ea cebd 764e ccbc
00000060: 0911 223b 1d5b a33d 6562 e83d ebcd 97b8
00000070: 3791 0a3e ca24 a0bc f19a 433c 94a1 833c
00000080: 6374 1e3e fa9a 283e a543 223d 0a6d 0d3d
00000090: 0ec9 67bd f9fd ed3d dcf5 d3bd 7153 163b
000000a0: 790f b13d 0cbb 93bb 555a 98bc 22ce 5dbd
000000b0: ae97 9fbc 15fc 5e3d d8f0 953d 904d afbb
000000c0: 0c97 4a3d 09e0 8abd 483d 40bd 9d7a 0dbc
000000d0: b77e de3c 2077 93bd dce9 083d a290 ba3d
000000e0: dd89 a4bd 3f80 663c 16ea 193c f188 fa3d
000000f0: 71ba 17bc c2be 11be a378 353e 1d41 9cbd

fc3.weight f4 [16, 64]
0.10236332 0.059943493 0.15307604 0.22133613 0.3502144 0.015851839 -0.120879605 0.15629119
0.0042973557 -0.024825698 -0.21936151 0.27212888 -0.064314246 -0.26154453 0.059628937 0.07996056
0.4501763 0.10078146 -0.026599558 0.106450595 0.21799904 -0.074195646 -0.13599226 -0.12885922
0.15165637 0.34771946 -0.047462963 0.12600154 -0.14035037 -0.21266358 -0.045175884 -0.08257743
-0.013040345 -0.23951715 0.23856443 -0.03833456 -0.088366255 -0.11100045 0.2625659 -0.20591755
-0.089741714 -0.14406106 -0.080833636 -0.116620585 0.10909769 0.4618254 0.101724304 0.09346179
-0.13146552 0.13101567 -0.17574897 0.15643895 -0.02353283 -0.109000884 -0.04310137 -0.27892905
-0.05054069 0.11579996 0.061465073 0.04288185 0.31174538 0.4690739 -0.3925481 0.07316211
-0.016861364 -0.040102467 0.076666996 0.097103715 -0.042092428 0.07947317 0.10377902 0.071674794
0.09990443 -0.049602136 -0.023237988 -0.058470324 0.045436785 -0.105037674 -0.059735104 -0.036348537
0.018953681 -0.069300696 -0.017037213 -0.12063418 -0.017303139 -0.07880749 -0.010248885 0.06384876
-0.05157511 -0.06024462 0.04856661 -0.036612183 -0.066595495 -0.027172893 -0.11074759 -0.0886178
-0.10030265 -0.08228034 0.010006726 -0.032991543 -0.006157264 -0.11241393 0.04215926 0.083529174
0.04722424 0.06120588 -0.06482303 -0.095266074 0.03676316 -0.11614524 -0.11985509 0.106076404
-0.054640576 0.00873737 0.0015686303 0.02883777 0.0073829293 -0.085819855 -0.07922517 0.12292068
0.110510096 0.09076558 0.017555967 -0.081596136 -0.07530631 -0.10621716 -0.10480322 0.037054464
0.051918186 -0.062104918 -0.17810063 0.27563247 -0.05365749 -0.109556906 0.4517103 0.37037584
0.08559543 0.28281078 0.23666003 -0.234433 0.1069298 0.02019812 0.013923772 -0.09096348
-0.4049351 -0.07401084 0.0008381969 0.26380655 -0.22602944 0.26759252 0.49814957 0.055283025
-0.3758935 -0.19524562 -0.20320745 0.11400378 0.66667444 0.009345591 -0.02641779 0.055110775
-0.20694149 0.4884915 -0.11939517 -0.05217658 0.09992814 0.17517644 -0.17885129 -0.12328562
0.627259 0.549705 0.019946424 -0.004150072 -0.27554956 0.4079487 0.58923733 -0.10899671
0.24452595 -0.0906252 0.02698296 -0.060287483 -0.073582985 0.13226718 -0.10377414 -0.24741867
0.22926313 0.073253915 -0.07881465 0.36915928 -0.13228585 -0.24954715 0.32782453 0.13265453
0.039394125 -0.10147098 0.10649061 -0.060903355 -0.0042002797 0.11562754 0.0020914972 -0.0578911
-0.09779282 -0.017527968 0.09474173 0.10323955 0.0074995905 -0.07240918 0.0072648823 0.12095241
-0.02994679 0.028366193 0.0967312 0.094201714 -0.047786057 0.08073726 -0.065105006 -0.105393946
0.043170035 -0.037352383 -0.034492508 -0.083268255 -0.098467916 0.021724328 0.10317123 0.002491653
-0.05201921 0.10957657 0.106384724 -0.06049554 -0.028952539 -0.092566565 -0.027936041 -0.09059417
-0.07717636 -0.08481839 -0.03967683 -0.03355716 -0.07820088 -0.058449805 -0.109309226 0.10452494
0.06774086 0.08112119 0.03256175 -0.001534313 0.058090016 0.047507912 0.010260448 0.022926316
-0.031470448 -0.075668186 0.120548934 -0.10180259 -0.02933307 -0.10255131 -0.10227482 0.012833595
00000000: dca3 d13d 4f87 753d f7bf 1c3e f0a5 623e
00000010: 4d4f b33e b7db 813c ba8f f7bd cc0a 203e
00000020: d5d0 8c3b 435f cbbc 4ea0 60be 7a54 8b3e
00000030: 30b7 83bd 2ae9 85be 793d 743d 5dc2 a33d
00000040: 827d e63e 8366 ce3d 51e7 d9bc c502 da3d
00000050: 243b 5f3e e3f3 97bd 8e41 0bbe acf3 03be
00000060: cf4b 1b3e 4908 b23e 8668 42bd 8c06 013e
00000070: 02b8 0fbe 7bc4 59be 590a 39bd 5b1e a9bd
00000080: 2ca7 55bc fc43 75be 3c4a 743e b304 1dbd
00000090: 5ef9 b4bd 3454 e3bd 0a6f 863e 0ddc 52be
000000a0: 81ca b7bd be84 13be 1b8c a5bd c6d6 eebd
000000b0: 9c6e df3d 6174 ec3e d554 d03d e568 bf3d
000000c0: e69e 06be f928 063e 8af7 33be 8831 203e
000000d0: ecc7 c0bc db3b dfbd 108b 30bd cacf 8ebe
000000e0: c103 4fbd 8828 ed3d cdc2 7b3d e1a4 2f3d
000000f0: 179d 9f3e 742a f03e 11fc c8be 04d6 953d
00000100: d820 8abc 7c42 24bd 9603 9d3d 50de c63d
00000110: 1c69 2cbd d4c2 a23d 188a d43d 3cca 923d
00000120: b29a cc3d 9c2b 4bbd 985d bebc 947e 6fbd
00000130: ec1b 3a3d fe1d d7bd ccac 74bd 34e2 14bd
00000140: c044 9b3c 86ed 8dbd a091 8bbc 0e0f f7bd
00000150: 50bf 8dbc d265 a1bd f0ea 27bc 24c3 823d
00000160: 6c40 53bd 10c3 76bd c8ed 463d a8f6 15bd
00000170: 3863 88bd b099 debc a2cf e2bd 407d b5bd
00000180: 7a6b cdbd 9882 a8bd 40f3 233c 2422 07bd
00000190: e0c2 c9bb 4639 e6bd 30af 2c3d 5811 ab3d
000001a0: 346e 413d 04b3 7a3d f0c1 84bd dc1a c3bd
000001b0: f894 163d 8edd edbd 9676 f5bd 963e d93d
000001c0: ccce 5fbd 3027 0f3c 809a cd3a 303d ec3c
000001d0: 80ec f13b 52c2 afbd ce40 a2bd d6bd fb3d
000001e0: 1e53 e23d 4ee3 b93d 88d1 8f3c e01b a7bd
000001f0: 323a 9abd 6288 d9bd 12a3 d6bd 6cc6 173d
00000200: 2aa8 543d ba61 7ebd 0360 36be b31f 8d3e
00000210: f5c7 5bbd 5f5f e0bd 9346 e73e e7a1 bd3e
00000220: a84c af3d 93cc 903e 0257 723e 340f 70be
00000230: 03fe da3d 8776 a53c 8820 643c 104b babd
00000240: a753 cfbe ff92 97bd 71ba 5b3a a711 873e
00000250: 4374 67be e301 893e 760d ff3e 7470 623d
00000260: 1d75 c0be 78ee 47be 9d15 50be d07a e93d
00000270: 2dab 2a3f 401e 193c 1f6a d8bc d6bb 613d
00000280: 78e8 53be 8f1b fa3e 7485 f4bd 1cb7 55bd
00000290: 20a7 cc3d 7461 333e cb24 37be 2c7d fcbd
000002a0: 0c94 203f 78b9 0c3f af66 a33c 54fd 87bb
000002b0: d514 8dbe a7de d03e 42d8 163f ab39 dfbd
000002c0: 0365 7a3e b499 b9bd 5e0b dd3c 02f0 76bd
000002d0: adb2 96bd 0c71 073e 8987 d4bd 525b 7dbe
000002e0: f4c3 6a3e 2606 963d 9369 a1bd 7202 bd3e
000002f0: f175 07be 4a89 7fbe 9ed8 a73e 97d6 073e
00000300: bc5b 213d 04d0 cfbd c017 da3d cc75 79bd
00000310: 80a2 89bb 22ce ec3d 8011 093b 381f 6dbd
00000320: 9a47 c8bd d096 8fbc f407 c23d 426f d33d
00000330: 20bf f53b 444b 94bd 400e ee3b e6b5 f73d
00000340: f852 f5bc 3860 e83c 021b c63d d4ec c03d
00000350: 50bb 43bd 9459 a53d c655 85bd c8d8 d7bd
00000360: 10d3 303d d0fe 18bd 0448 0dbd 8c88 aabd
00000370: 8ca9 c9bd 38f7 b13c 704b d33d 004b 233b
00000380: 1812 55bd ae69 e03d 3ce0 d93d 2cca 77bd
00000390: e02d edbc 8a93 bdbd 20da e4bc 7089 b9bd
000003a0: a40e 9ebd 44b5 adbd 2c84 22bd 3c73 09bd
000003b0: c827 a0bd 1069 6fbd 84dd dfbd 2c11 d63d
000003c0: b8bb 8a3d de22 a63d 785f 053d 001b c9ba
000003d0: ccef 6d3d a897 423d 701b 283c f8cf bb3c
000003e0: 28e7 00bd ecf7 9abd 5ce2 f63d e07d d0bd
000003f0: e84b f0bc 6c06 d2bd 7675 d1bd 0044 523c

fc3.bias f4 [16]
-0.08385243 -0.0910027 0.3853727 -0.084421396 -0.24528906 -0.017143447 0.2473437 -0.3183564
0.63053757 0.0071841343 0.24364088 -0.13394563 0.095604785 -0.09562248 -0.23590118 -0.09788294
00000000: d3ba abbd a05f babd 924f c53e 20e5 acbd
00000010: 0e2d 7bbe 6a70 8cbc ab47 7d3e 9cff a2be
00000020: e96a 213f e368 eb3b ff7c 793e 0b29 09be
00000030: 71cc c33d b8d5 c3bd 1490 71be da76 c8bd

clf.weight f4 [10, 16]
-0.14521004 0.11890942 0.03947748 0.012312859 -0.082077436 0.11501029 -0.08751682 -0.2682684
-0.11013269 1.259256 -0.70616794 -0.38363773 0.29987058 -0.056710526 -0.50854814 0.86332834
0.6328631 0.19343677 -0.7166862 0.18139723 0.22103654 -0.03755587 1.315423 0.18795553
-0.14234522 -0.9258087 0.4534785 -0.06709379 0.40092245 -0.25541916 -0.8092496 0.18196827
0.57533395 -0.09659219 -0.017152779 -0.16995251 -0.12335888 -0.11280788 0.2904574 0.1283335
-0.48024136 0.6840512 0.51419526 -0.26341057 -0.65307677 0.22537906 -1.2603217 -0.027423138
0.12680171 -0.040756643 -0.87417334 -0.1970042 0.13836266 -0.14197461 0.6484693 -0.27280876
0.8062366 -0.047950957 -0.33395725 -0.43452063 0.47525254 0.2336359 1.2937214 -0.4002783
0.7787563 0.14598852 -0.42515156 0.17485785 -0.40312675 -0.042380013 0.54992574 -0.17176345
-0.12721723 -0.9042904 0.9660148 1.0361768 -0.15105432 0.08485802 0.5436443 -0.33932528
-0.7139911 0.024183631 1.0602883 -0.03854665 0.15806188 -0.59270585 0.72363603 -0.7104758
0.61040735 -0.9518064 0.18667397 -0.36804214 -0.1989131 0.110188976 -1.2163235 0.15033785
0.036429632 -0.22528294 -0.43106917 -0.094456494 -0.36795542 0.06737973 -1.3289847 0.2571934
0.40705937 1.4681445 0.36937493 1.0674492 0.3018356 0.11492095 0.7195473 -0.33713037
-0.5517208 0.012363672 0.6856205 0.11071658 -0.030575829 0.9409088 -0.90409994 0.3471499
0.6971719 -0.85848176 -0.6479857 0.24965413 0.13119109 0.013051002 1.2400078 -0.04718179
0.16999762 -0.23374847 0.5511901 0.055499256 0.38524133 -0.26295027 0.34913763 -0.3702588
-0.34660032 -0.2711785 -0.48883307 0.12682176 0.022775851 -0.17519233 1.0078988 -0.26711172
-0.20226038 0.07486385 0.8726949 0.13461152 -0.14410695 0.07555227 -1.254413 0.771632
-0.9811391 0.6881807 -0.06363652 0.079602875 0.12925111 -0.03461953 -0.58368826 0.49320805
00000000: f1b1 14be c886 f33d 23b3 213d e0bb 493c
00000010: 3718 a8bd 848a eb3d 053c b3bd 7a5a 89be
00000020: 3f8d e1bd 4d2f a13f 6cc7 34bf 2a6c c4be
00000030: a388 993e 4c49 68bd 3630 02bf 1603 5d3f
00000040: 5103 223f 4a14 463e bf78 37bf 32c0 393e
00000050: 6757 623e 2fd4 19bd c85f a83f 6a77 403e
00000060: f2c2 11be cd01 6dbf 552e e83e 7868 89bd
00000070: b545 cd3e 4dc6 82be fb2a 4fbf e455 3a3e
00000080: 1649 133f 20d2 c5bd fc83 8cbc 0808 2ebe
00000090: 95a3 fcbd d107 e7bd d5b6 943e db69 033e
000000a0: 32e2 f5be fb1d 2f3f 4da2 033f c0dd 86be
000000b0: 0a30 27bf c5c9 663e 3952 a1bf 7da6 e0bc
000000c0: 4fd8 013e 70f0 26bd d3c9 5fbf 78bb 49be
000000d0: f1ae 0d3e cb61 11be 1602 263f 97ad 8bbe
000000e0: 8665 4e3f 3968 44bd 72fc aabe 7d79 debe
000000f0: 4d54 f33e 403e 6f3e aa98 a53f 47f1 ccbe
00000100: 935c 473f 047e 153e 77ad d9be f00d 333e
00000110: a166 cebe aa96 2dbd efc7 0c3f c2e2 2fbe
00000120: 3c45 02be 937f 67bf bf4c 773f 71a1 843f
00000130: fcad 1abe 0bca ad3d 462c 0b3f 0bbc adbe
00000140: 1fc8 36bf c01c c63c 87b7 873f 18e3 1dbd
00000150: f9da 213e 92bb 17bf 3640 393f bee1 35bf
00000160: a843 1c3f 96a9 73bf 7627 3f3e 0570 bcbe
00000170: e0af 4bbe c2aa e13d 7db0 9bbf 2af2 193e
00000180: 3d37 153d 92b0 66be 19b5 dcbe 6872 c1bd
00000190: a764 bcbe 62fe 893d 2c1c aabf daae 833e
000001a0: 166a d03e 29ec bb3f b61e bd3e 2da2 883f
000001b0: 328a 9a3e ad5b eb3d 4034 383f 5a9c acbe
000001c0: 933d 0dbf 0091 4a3c d384 2f3f 60bf e23d
000001d0: 297a fabc 66df 703f 1873 67bf a2bd b13e
000001e0: dc79 323f 76c5 5bbf 64e2 25bf 55a5 7f3e
000001f0: f556 063e dfd3 553c 93b8 9e3f b141 41bd
00000200: db13 2e3e c25b 6fbe cb1a 0d3f 3053 633d
00000210: 5a3e c53e 6ba1 86be 2bc2 b23e 9092 bdbe
00000220: 9975 b1be e9d7 8abe 5448 fabe 90dd 013e
00000230: 6c94 ba3c 9e65 33be d402 813f dec2 88be
00000240: 581d 4fbe 3852 993d ef68 5f3f 9ad7 093e
00000250: c690 13be 26bb 9a3d 9b90 a0bf ad89 453f
00000260: ef2b 7bbf 9c2c 303f dd53 82bd d506 a33d
00000270: 675a 043e 35cd 0dbd 986c 15bf c485 fc3e

clf.bias f4 [10]
-0.053249743 -0.21224375 0.040427577 -0.111894764 -0.43784064 1.0205048 0.15626793 0.09209943
-0.36357263 -0.24566513
00000000: 671c 5abd 6d56 59be 6397 253d 1529 e5bd
00000010: a62c e0be e79f 823f b304 203e a09e bc3d
00000020: 3126 babe a48f 7bbe
