models/model_cnn3.pth (torch_old, 119012 bytes, 14 tensors)

layer1.0.weight f4 [16, 1, 5, 5]
0.11085265 -0.16949233 -0.13991442 0.20115118 -0.109262384 -0.18082616 0.11838505 0.091578335
0.04841537 0.027907487 0.18600473 -0.0010472424 -0.14606877 0.13234471 0.10964832 0.100121625
0.02678302 0.0840079 0.13570166 0.10976288 -0.13308391 -0.1448889 -0.22021881 -0.07371212
0.116953395 0.13663685 0.1478907 0.123669006 -0.13801453 0.07151552 -0.18144494 0.023191463
0.003338217 -0.08964846 0.092878684 0.0852222 0.11628023 0.12380056 -0.21515165 0.12550604
0.07071244 0.09907217 0.08774855 0.08094658 0.09325698 0.039191373 0.023730664 -0.027163634
-0.10477656 0.04693005 -0.15308133 0.05743193 0.18981196 -0.15075277 0.08975796 0.11296743
0.018115059 -0.03662577 0.099928424 -0.07212258 -0.1620313 -0.21710129 -0.18701199 0.108361974
0.1413627 0.14396729 0.0041450853 0.114072055 0.11811024 0.069827326 0.17722297 -0.1871369
0.020709883 -0.00054101576 -0.17650767 -0.18204731 -0.16527969 0.12775202 0.16845597 0.04718747
0.005734708 0.008151466 0.03432567 -0.030387426 -0.00027862398 0.050960023 0.17194568 -0.011780701
-0.12372555 -0.09971317 0.10675121 -0.050747234 0.037394363 -0.040370163 -0.05478664 -0.10957852
0.04875008 -0.041682396 -0.024003707 0.13958764 0.019878756 -0.0909207 0.0934506 -0.015195304
0.08650338 -0.21159768 0.027155545 -0.18027347 0.088576846 0.03817041 -0.23262195 0.11846586
0.16133544 0.037417337 0.054409485 -0.020106182 0.14153796 0.04699688 -0.08701006 0.0732578
-0.17285246 -0.11769867 0.2013235 -0.20151663 -0.05376047 -0.14590974 0.17031029 0.14601824
-0.23657143 -0.10945624 0.060146257 -0.091519475 0.18985085 0.14770049 -0.17221941 -0.18982188
0.16707498 0.14556427 -0.026197173 0.15611266 -0.17285983 -0.1642272 0.16256416 0.16874035
-0.17163387 -0.0045116143 -0.1902301 0.081127785 0.051811907 0.030384751 -0.1367708 0.036960352
0.063722625 0.116781175 -0.18202691 -0.18205097 -0.16425622 0.14146566 -0.027799126 0.14788043
0.102920465 -0.058939878 -0.11078464 0.12188963 0.08984887 0.09680552 -0.11741654 0.10057989
-0.1339689 0.06396634 0.06962503 -0.03948566 -0.16469327 0.12310382 -0.0046410486 0.041993123
0.09183868 0.19782801 -0.081163526 0.0045683733 -0.032863513 0.1530777 -0.05230792 -0.036459807
-0.08818371 -0.018385416 0.046555106 -0.18274774 0.13329928 -0.21588863 0.067554824 -0.191601
-0.1290644 -0.024984863 -0.08215002 0.0507458 -0.20817696 -0.14242727 0.12983102 0.15008777
-0.08897737 0.0431288 -0.030318722 -0.13581023 0.08110075 0.018147081 -0.11332963 0.1533447
0.18705732 -0.16488586 0.16203794 -0.13679776 -0.16442905 0.19209495 0.09334378 -0.12550089
0.023437442 0.14714603 -0.13532826 -0.03832726 0.08650021 -0.091164276 0.110342525 -0.03773609
-0.044900663 0.12418316 -0.1668822 -0.00886316 0.1825716 0.16267382 -0.23940685 -0.060964596
-0.084037244 -0.16409265 0.15084425 0.21724641 0.032013576 -0.11655948 -0.18188618 -0.011215257
-0.08187419 0.16124596 0.1766349 -0.03663051 0.050552677 -0.016662939 -0.10666667 -0.12571552
0.018195765 0.13445118 0.020040784 0.17284982 -0.075231865 0.08757016 0.006161379 0.1509729
00000000: b706 e33d 668f 2dbe ba45 0fbe 93fa 4d3e
00000010: f5c4 dfbd 7e2a 39be dc73 f23d 6c8d bb3d
00000020: 324f 463d 3e9e e43c 0678 3e3e a043 89ba
00000030: 0d93 15be 5f85 073e 4c8f e03d 910c cd3d
00000040: 1068 db3c 550c ac3d 60f5 0a3e 5ccb e03d
00000050: 2647 08be c15d 14be 0a81 61be 61f6 96bd
00000060: 4385 ef3d 88ea 0b3e a970 173e 2d46 fd3d
00000070: ae53 0dbe bb76 923d b4cc 39be 06fc bd3c
00000080: fdc5 5a3b 9d99 b7bd 2e37 be3d fa88 ae3d
00000090: 5424 ee3d 268b fd3d b750 5cbe a884 003e
000000a0: afd1 903d 5ae6 ca3d 83b5 b33d 52c7 a53d
000000b0: 84fd be3d 2287 203d cf66 c23c 4586 debc
000000c0: 1895 d6bd b939 403d 5ac1 1cbe be3d 6b3d
000000d0: 115e 423e ef5e 1abe 05d3 b73d 785b e73d
000000e0: 0866 943c e704 16bd 46a7 cc3d 01b5 93bd
000000f0: 88eb 25be cd4f 5ebe 1280 3fbe e2ec dd3d
00000100: 62c1 103e 296c 133e 7fd3 873b 9c9e e93d
00000110: c8e3 f13d a101 8f3d f079 353e d1a0 3fbe
00000120: c6a7 a93c f4d2 0dba 6dbe 34be 9c6a 3abe
00000130: 143f 29be 6dd1 023e b97f 2c3e a647 413d
00000140: 38ea bb3b ba8d 053c 1399 0c3d 0def f8bc
00000150: 4714 92b9 75bb 503d 8712 303e d703 41bc
00000160: d263 fdbd 6b36 ccbd 61a0 da3d 55dc 4fbd
00000170: d52a 193d 2f5b 25bd f567 60bd b46a e0bd
00000180: 2aae 473d 29bb 2abd 6ca3 c4bc 10f0 0e3e
00000190: c6d8 a23c a234 babd 0763 bf3d b9f5 78bc
000001a0: af28 b13d 10ad 58be 4e75 de3c 9c99 38be
000001b0: c767 b53d 9358 1c3d 7334 6ebe 3b9e f23d
000001c0: 1e35 253e ec42 193d 7bdc 5e3d b8b5 a4bc
000001d0: 54ef 103e cd7f 403d 5532 b2bd 2f08 963d
000001e0: 3c00 31be 000c f1bd bf27 4e3e 605a 4ebe
000001f0: f033 5cbd 5d69 15be d265 2e3e ce85 153e
00000200: c83f 72be 982a e0bd ec5b 763d 906e bbbd
00000210: 4368 423e cc3e 173e 495a 30be ab60 42be
00000220: b415 2b3e cd0e 153e 749b d6bc ffdb 1f3e
00000230: 2b02 31be 2d2b 28be 3877 263e 45ca 2c3e
00000240: cac0 2fbe 2ad6 93bb aecb 42be 5326 a63d
00000250: b938 543d 71e9 f83c a50d 0cbe bd63 173d
00000260: 0281 823d f82a ef3d 4365 3abe 926b 3abe
00000270: c832 28be 60dc 103e feba e3bc f86d 173e
00000280: f7c7 d23d f16a 71bd 0fe3 e2bd 45a1 f93d
00000290: af02 b83d f941 c63d 1578 f0bd d4fc cd3d
000002a0: 252f 09be c900 833d 9197 8e3d b7bb 21bd
000002b0: 5aa5 28be db1d fc3d f013 98bb fb00 2c3d
000002c0: eb15 bc3d 6d93 4a3e 1039 a6bd 4bb2 953b
000002d0: e49b 06bd 67c0 1c3e d440 56bd e156 15bd
000002e0: a999 b4bd 039d 96bc 91b0 3e3d 3922 3bbe
000002f0: 9b7f 083e e911 5dbe 2f5a 8a3d 0d33 44be
00000300: 7529 04be 0ead ccbc 453e a8bd d4da 4f3d
00000310: 572c 55be 74d8 11be 6cf2 043e 9cb0 193e
00000320: c439 b6bd d3a7 303d f85e f8bc d611 0bbe
00000330: 2618 a63d 30a9 943c 5d19 e8bd 6506 1d3e
00000340: f48b 3f3e d7d7 28be 46ed 253e b614 0cbe
00000350: 1760 28be 8ab4 443e 062b bf3d 4e83 00be
00000360: e1ff bf3c 73ad 163e 7e93 0abe 0cfd 1cbd
00000370: 0627 b13d 56b4 babd 43fb e13d 2991 1abd
00000380: c2e9 37bd be53 fe3d 2be3 2abe ca36 11bc
00000390: 0df4 3a3e f793 263e 1227 75be 03b6 79bd
000003a0: b81b acbd e707 28be ea76 1a3e d875 5e3e
000003b0: ab20 033d bdb6 eebd 5f40 3abe 33c0 37bc
000003c0: a8ad a7bd a91d 253e c7df 343e e009 16bd
000003d0: 5310 4f3d b780 88bc 0e74 dabd 92bb 00be
000003e0: 490f 953c 92ad 093e 922c a43c 8bff 303e
000003f0: 2a13 9abd fc57 b33d 65e5 c93b a498 1a3e

layer1.0.bias f4 [16]
0.11491707 -0.1317566 -0.039989486 -0.02651984 -0.11507909 0.0012307009 0.026134396 -0.09220361
0.010207865 0.151801 0.026123157 0.16801536 -0.1234037 -0.1200989 0.031110512 -0.121477984
00000000: a459 eb3d 34eb 06be 04cc 23bd 2340 d9bc
00000010: 96ae ebbd 784f a13a cd17 d63c 3fd5 bcbd
00000020: e43e 273c b971 1b3e 3b00 d63c 380c 2c3e
00000030: 14bb fcbd 69f6 f5bd 79db fe3c 73c9 f8bd

layer1.1.weight f4 [16]
0.91453403 0.8789579 0.9155617 1.0074564 1.0269922 1.030334 1.0475249 1.1262705
0.95202845 0.99511343 0.9738462 1.0079069 1.0888535 1.0298489 0.962187 1.0150292
00000000: e71e 6a3f 6303 613f 4062 6a3f 55f4 803f
00000010: 7b74 833f fce1 833f 4c15 863f a229 903f
00000020: 23b8 733f c1bf 7e3f fc4d 793f 1803 813f
00000030: 8d5f 8b3f 17d2 833f e351 763f 7aec 813f

layer1.1.bias f4 [16]
-0.06394858 -0.10174409 -0.15232685 -0.008874714 -0.048524026 0.01384701 -0.059645016 -0.16259465
-0.0053081345 -0.030309262 0.04465697 -0.03793641 -0.22578324 -0.055389017 -0.12326761 -0.023070317
00000000: 79f7 82bd 355f d0bd 92fb 1bbe 4067 11bc
00000010: 21c1 46bd 92de 623c 554e 74bd 367f 26be
00000020: dcef adbb 214b f8bc 3aea 363d 3663 1bbd
00000030: b933 67be 98df 62bd bb73 fcbd f6fd bcbc

layer1.1.running_mean f4 [16]
0.19947857 0.09494337 -0.003662788 -0.026566338 -0.17157719 0.0046693543 0.015237114 -0.20676452
0.01376088 0.15297025 0.027622832 0.16532917 -0.25343594 -0.14622405 0.09297285 -0.11808005
00000000: 1c44 4c3e ab71 c23d 630b 70bb a6a1 d9bc
00000010: eeb1 2fbe 6201 993b 17a5 793c 14ba 53be
00000020: 5075 613c 3ca4 1c3e 4749 e23c 0d4c 293e
00000030: 5bc2 81be c2bb 15be 8d68 be3d f4d3 f1bd

layer1.1.running_var f4 [16]
0.024404764 0.06311013 0.009196752 0.004067241 0.021012813 0.022771262 0.0106129935 0.029074928
0.0037474458 0.013028257 0.037108984 0.008840121 0.03249597 0.013870973 0.009432408 0.010460577
00000000: 80ec c73c e23f 813d f9ad 163c 7e46 853b
00000010: 1023 ac3c cc8a ba3c 1fe2 2d3c 8b2e ee3c
00000020: b597 753b 7874 553c 97ff 173d 28d6 103c
00000030: 7f1a 053d 1443 633c 638a 1a3c d762 2b3c

layer2.0.weight f4 [32, 16, 5, 5]
-0.035547286 -0.023904288 0.026285833 0.0015417365 0.03425859 -0.023533328 -0.040892843 -0.003265425
0.016310774 0.044633117 0.003006123 0.034509487 0.011324484 -0.0041733356 0.0023758616 -0.016197141
-0.005177178 0.033407025 -0.025316086 -0.006617286 -0.0051403367 0.011795352 0.029911902 -0.03197052
0.03635587 0.011613388 -0.001538134 0.022388633 0.008543014 -0.018097963 0.033799097 -0.0030150432
-0.067836985 -0.02989268 0.050177965 0.049689926 0.03263616 0.005306915 -0.044761665 0.008541793
0.010658865 -0.023038974 -0.051316764 -0.11085891 0.013314982 -0.026361391 0.0069810017 0.006446239
-0.05810156 -0.052208602 0.01063035 -0.027698003 -0.043220825 0.066377304 0.018261665 0.00035656788
0.030505737 -0.027478652 0.028041411 -0.025869984 -0.08107118 -0.04162957 0.011394016 -0.017825775
0.017987661 0.025386633 -0.072423905 0.031240713 0.04342273 0.03680915 0.007030362 -0.015687445
-0.020788884 -0.024939384 0.021156954 -0.03165236 0.010093799 0.024587397 -0.006341849 -0.04452913
-0.017963799 0.05423833 0.05667675 0.13438815 0.011719481 -0.07730194 -0.068431795 -0.049465925
-0.058084097 -0.03954889 -0.028538227 -0.08328305 -0.005027217 0.006589474 0.032560192 0.020875013
-0.01194813 -0.011773882 -0.034536283 0.028689215 0.02312289 -0.008288625 -0.004179356 -0.07080657
0.038543683 0.047446903 -0.014656611 -0.061030075 -0.08431606 -0.034091935 0.03789964 -0.011781359
0.010062272 0.06389304 -0.033571985 -0.08902628 0.014711916 0.07658044 0.09334021 0.043859288
-0.028156672 0.049797025 -0.02987509 -0.009635222 -0.032465592 0.023232546 -0.0072733173 -0.054854296
0.035249613 0.043162923 0.10065005 0.058802027 -0.009047324 0.004160105 -0.018837228 -0.009732808
0.022931637 0.10656107 0.03539804 0.01054222 0.0066954745 0.017265229 0.044479758 0.0018717103
-0.0066445875 -0.0015364763 0.02757174 -0.054905005 -0.008081579 -0.07707635 0.03866453 0.026946649
-0.024710812 -0.012275403 -0.058808547 0.047357112 0.043195255 -0.041730113 -0.0629602 0.066553526
0.027326614 -0.026857907 0.05649444 -0.03749168 -0.01694427 0.0259837 0.008173717 -0.006809397
0.03194618 0.030913483 0.013273525 -0.056313276 0.0010326655 0.029348932 -0.0007051417 -0.050990865
-0.04204885 -0.019286564 0.010044208 0.020746453 0.036276367 -0.0124789 -0.0042800796 0.090028495
-0.0026084168 0.046843797 -0.05212782 0.006952903 -0.04228715 -0.07048401 -0.045060594 0.080731295
-0.0062690214 0.062297605 -0.04595701 0.07534179 -0.0027401845 -0.035948392 -0.030337403 -0.0052655432
-0.008138586 0.005281708 -0.057591822 0.049849056 0.054182872 -0.07773086 0.00215603 0.065147676
-0.012897404 -0.028158775 -0.07293076 0.026412312 0.05370544 -0.02976559 0.010144398 -0.0049704527
0.0113383075 0.0030532645 0.03139654 -0.045218617 0.0012506926 0.0031919307 0.0001375786 0.012292281
0.019696122 -0.017899154 0.002497155 0.041879863 0.0772437 -0.030247629 -0.0018497587 -0.010375756
-0.10042148 0.036980785 0.021569284 -0.0037418746 -0.0039850855 -0.04085858 -0.047445256 0.016082583
0.011236622 0.0032423749 -0.055574175 -0.02107639 -0.07195471 0.020938406 0.043095175 -0.014818528
-0.027506964 0.06412889 -0.022778932 0.03621221 0.027086506 -0.06900663 0.008233178 -0.013860472
00000000: 089a 11bd edd2 c3bc 6355 d73c 1814 ca3a
00000010: bc52 0c3d f7c8 c0bc 417f 27bd be00 56bb
00000020: 2c9e 853c 37d1 363d 6002 453b d259 0d3d
00000030: 548a 393c 7ac0 88bb 58b4 1b3b deaf 84bc
00000040: 51a5 a9bb ced5 083d ae63 cfbc d1d5 d8bb
00000050: 4570 a8bb 4b41 413c ce09 f53c 85f3 02bd
00000060: e5e9 143d 1446 3e3c 369b c9ba 5e68 b73c
00000070: fff7 0b3c 2e42 94bc ec70 0a3d 0898 45bb
00000080: 1eee 8abd 7ee1 f4bc 6987 4d3d aa87 4b3d
00000090: 7ead 053d a1e5 ad3b 0258 37bd e0f2 0b3c
000000a0: 85a2 2e3c 3bbc bcbc 8731 52bd ff09 e3bd
000000b0: 1527 5a3c d8f3 d7bc e3c0 e43b f93a d33b
000000c0: e7fb 6dbd b0d8 55bd eb2a 2e3c ece6 e2bc
000000d0: 5208 31bd d3f0 873d 7d99 953c bbf1 ba39
000000e0: 2be7 f93c e91a e1bc 1ab7 e53c 4aed d3bc
000000f0: a608 a6bd c583 2abd f8ad 3a3c 5c07 92bc
00000100: dc5a 933c a1f7 cf3c fc52 94bd 86ec ff3c
00000110: 08dc 313d 31c5 163d f35e e63b f582 80bc
00000120: 734d aabc ae4d ccbc 5951 ad3c e8a5 01bd
00000130: 7660 253c 826b c93c 49cf cfbb 2d64 36bd
00000140: d128 93bc 0329 5e3d e125 683d 0c9d 093e
00000150: 1103 403c 7b50 9ebd f825 8cbd c89c 4abd
00000160: 97e9 6dbd 04fe 21bd 00c9 e9bc 4e90 aabd
00000170: 5abb a4bb 84ec d73b d65d 053d 1302 ab3c
00000180: 17c2 43bc 3ee7 40bc eb75 0dbd a505 eb3c
00000190: 376c bd3c 03cd 07bc fbf2 88bb 0903 91bd
000001a0: fbdf 1d3d af57 423d 4822 70bc acfa 79bd
000001b0: e6ad acbd fca3 0bbd a73c 1b3d 9a06 41bc
000001c0: 3adc 243c 5bda 823d c782 09bd 6953 b6bd
000001d0: 400a 713c 35d6 9c3d 2729 bf3d cca5 333d
000001e0: d2a8 e6bc f7f7 4b3d 9bbc f4bc 0ddd 1dbc
000001f0: a4fa 04bd 2e52 be3c 0255 eebb e6ae 60bd
00000200: e661 103d 9bcb 303d 9d21 ce3d 65da 703d
00000210: 3a3b 14bc 7d51 883b 8850 9abc 5b76 1fbc
00000220: 21db bb3c b13c da3d 89fd 103d 47b9 2c3c
00000230: b665 db3b cf6f 8d3c 6830 363d 2d54 f53a
00000240: d7ba d9bb 9763 c9ba 21de e13c 12e4 60bd
00000250: 9968 04bc 35da 9dbd b35e 1e3d 38bf dc3c
00000260: 546e cabc c61e 49bc 3be1 70bd 88f9 413d
00000270: 82ed 303d 32ed 2abd 47f1 80bd 374d 883d
00000280: 10dc df3c 1d05 dcbc b766 673d e090 19bd
00000290: b6ce 8abc c5db d43c 0eeb 053c 5d21 dfbb
000002a0: ffd9 023d 463e fd3c 3379 593c c0a8 66bd
000002b0: 815a 873a 2c6d f03c 42d9 38ba ccdb 50bd
000002c0: 6a3b 2cbd dbfe 9dbc 7690 243c 77f4 a93c
000002d0: 8796 143d 4d74 4cbc e93f 8cbb dc60 b83d
000002e0: f9f1 2abb 48df 3f3d fb83 55bd 2dd5 e33b
000002f0: 4a35 2dbd ec59 90bd 7591 38bd 7356 a53d
00000300: 5d6c cdbb c62b 7f3d 6b3d 3cbd cc4c 9a3d
00000310: ab94 33bb 9f3e 13bd 2586 f8bc 948a acbb
00000320: b457 05bc 2e12 ad3b 67e5 6bbd 862e 4c3d
00000330: dcee 5d3d 5b31 9fbd 2e4c 0d3b 256c 853d
00000340: a24f 53bc 3bad e6bc b95c 95bd a25e d83c
00000350: 3cfa 5b3d f7d6 f3bc b034 263c 2edf a2bb
00000360: 4fc4 393c 4719 483b a999 003d 2837 39bd
00000370: 48ee a33a b62f 513b f942 1039 9065 493c
00000380: c359 a13c 3fa1 92bc 4fa7 233b 388a 2b3d
00000390: f231 9e3d e0c9 f7bc 9a73 f2ba 13ff 29bc
000003a0: c7a9 cdbd 2a79 173d 11b2 b03c 3d3a 75bb
000003b0: 5295 82bb 545b 27bd f555 42bd 9fbf 833c
000003c0: cf19 383c 067e 543b bfa1 63bd 65a8 acbc
000003d0: fe5c 93bd 0587 ab3c 9184 303d 69c9 72bc
000003e0: 4956 e1bc 0256 833d e29a babc 4153 143d
000003f0: 85e4 dd3c 5953 8dbd 74e4 063c 0817 63bc

layer2.0.bias f4 [32]
-0.05231671 -0.072007135 0.0092925485 0.014955299 0.022923084 0.00011558868 -0.0020385117 0.05887846
-0.03243693 0.026303537 0.03273582 0.029694714 -0.0096838465 -0.005609473 0.057564557 -0.028168159
0.04558272 -0.041494288 0.084020756 0.045324042 0.020545555 0.0067816316 -0.044788294 0.08350089
0.0047574732 -0.06799901 -0.03722488 0.024241947 0.03539844 0.008836072 0.011051681 -0.020823635
00000000: 0c4a 56bd 7a78 93bd c63f 183c 1207 753c
00000010: 31c9 bb3c 3368 f238 8d98 05bb 8a2a 713d
00000020: 96dc 04bd 847a d73c ff15 063d 5442 f33c
00000030: ffa8 1ebc accf b7bb d0c8 6b3d e9c0 e6bc
00000040: f2b4 3a3d eaf5 29bd 1313 ac3d b4a5 393d
00000050: 274f a83c 7338 de3b ee73 37bd 8402 ab3d
00000060: 94e4 9b3b 1143 8bbd 1e79 18bd 0c97 c63c
00000070: f4fd 103d 2cc5 103c 1c12 353c 5496 aabc

layer2.1.weight f4 [32]
1.4315715 1.236097 1.352794 1.3613453 1.2679174 1.286917 1.3922287 1.2440042
1.2939022 1.211308 1.2281221 1.2676895 1.2482705 1.3359027 1.3413564 1.2981436
1.1694539 1.3686823 1.2885324 1.2189777 1.3755175 1.2147995 1.3725095 1.2384763
1.2749592 1.2856797 1.308188 1.2043043 1.3095254 1.3024569 1.2745173 1.273602
00000000: bc3d b73f 6d38 9e3f 5b28 ad3f 9040 ae3f
00000010: 1e4b a23f b2b9 a43f 8d34 b23f 883b 9f3f
00000020: 969e a53f 240c 9b3f 1b33 9d3f a643 a23f
00000030: 54c7 9f3f dcfe aa3f 91b1 ab3f 9229 a63f
00000040: aab0 953f fb30 af3f a1ee a43f 7607 9c3f
00000050: f510 b03f 8d7e 9b3f 64ae af3f 6486 9e3f
00000060: dd31 a33f 2791 a43f b472 a73f a526 9a3f
00000070: 879e a73f e8b6 a63f 6223 a33f 6405 a33f

layer2.1.bias f4 [32]
0.001754834 0.016728116 -0.039862856 0.002403298 -0.028689368 -0.0191704 -0.0364675 0.0042322897
0.029185515 0.025367571 0.014474938 0.013784636 0.005229052 -0.016392063 -0.04716935 -0.018819472
-0.006530397 0.029482376 0.05103459 0.017715381 0.0021395471 0.040514786 -0.0015094583 0.019607954
-0.0005955273 -0.0191118 0.0034151461 0.021068493 0.009955377 -0.014287787 0.0068668574 -0.034289755
00000000: 7502 e63a 6709 893c 3c47 23bd a680 1d3b
00000010: f705 ebbc 3e0b 9dbc f25e 15bd 05af 8a3b
00000020: 7616 ef3c a7cf cf3c 4a28 6d3c f4d8 613c
00000030: 7858 ab3b a648 86bc a634 41bd 4b2b 9abc
00000040: f1fc d5bb 0685 f13c a509 513d d91f 913c
00000050: a537 0c3b d5f2 253d 04d9 c5ba dca0 a03c
00000060: 291d 1cba 5990 9cbc a5d0 5f3b d597 ac3c
00000070: e11b 233c 5217 6abc 6003 e13b 6a73 0cbd

layer2.1.running_mean f4 [32]
-0.26201153 -0.23343526 -0.44188643 -0.114210814 -0.1096174 0.04596296 -0.1593615 -0.07419579
-0.1347765 0.046642046 0.13583244 -0.46406856 0.11188852 -0.27059752 -0.22871216 -0.108397745
-0.24898584 0.1451274 0.08055646 -0.13291992 -0.253502 0.17858642 -0.17434049 0.055497397
0.032875728 -0.8829196 -0.2539909 0.24154706 -0.076736026 -0.2691675 0.090821765 -0.5828206
00000000: 6026 86be a709 6fbe f03e e2be 5ce7 e9bd
00000010: 167f e0bd a843 3c3d a92f 23be f6f3 97bd
00000020: da02 0abe bb0b 3f3d a917 0b3e 659a edbe
00000030: cf25 e53d c28b 8abe 8533 6abe a3ff ddbd
00000040: 25f6 7ebe 479c 143e c9fa a43d 291c 08be
00000050: 04cb 81be 5cdf 363e 5086 32be 3d51 633d
00000060: b3a8 063d 0507 62bf 180b 82be 1d58 773e
00000070: c727 9dbd 53d0 89be c300 ba3d bb33 15bf

layer2.1.running_var f4 [32]
0.1903077 0.18295148 0.41732943 0.20387012 0.18707022 0.19456275 0.20233786 0.19492938
0.25321224 0.28848884 0.20895739 0.21440068 0.23677899 0.2705405 0.28562552 0.19138841
0.16771802 0.24093044 0.16215415 0.21889476 0.2350591 0.17133334 0.20787515 0.17741907
0.15205996 0.6262623 0.22291805 0.29134393 0.20219906 0.55520654 0.16518204 0.19787477
00000000: 06e0 423e a257 3b3e 34ac d53e 54c3 503e
00000010: 568f 3f3e 753b 473e a831 4f3e 919b 473e
00000020: 09a5 813e cfb4 933e edf8 553e da8b 5b3e
00000030: 3176 723e 4984 8a3e 823d 923e 53fb 433e
00000040: 46be 2b3e 78b6 763e bd0b 263e f325 603e
00000050: 55b3 703e 0272 2f3e 39dd 543e 58ad 353e
00000060: 9bb5 1b3e ba52 203f a144 643e 082b 953e
00000070: 450d 4f3e 0422 0e3f 7b25 293e af9f 4a3e

fc.weight f4 [10, 1568]
0.046225525 0.037546944 0.04546921 -0.034826946 -0.0019147574 0.003218135 -0.004759873 -0.04418678
0.051166814 0.070186056 -0.036608834 0.005366808 0.0093749575 0.054076456 0.0037572144 0.069836445
0.02847996 -0.058780666 0.011826111 -0.07128948 0.02159929 0.034084696 0.001603604 -0.012790314
-0.052248888 -0.03483821 -0.032026116 0.012310068 -0.03793225 -0.0036452035 0.04470371 0.0027307926
0.01723005 0.016099839 -0.027089914 -0.07234324 -0.022240072 -0.04664617 -0.0097695775 0.02202663
0.014783365 -0.009592787 -0.017356277 -0.04536664 0.01856585 0.016891243 0.030728208 -0.04368884
-0.050010994 0.02477051 0.009173125 -0.024019709 0.007921939 -0.08287879 0.029470684 0.011083457
-0.017487168 -0.0032018332 0.039444227 -0.011833622 0.021802912 0.028214006 -0.017835815 -0.02879681
-0.021796541 0.043021057 -0.014313123 -0.050850898 -0.07350066 -0.0067011733 -0.00021675485 -0.09616468
-0.0049258294 -0.014996488 0.011031947 -0.030683236 -0.017287716 -0.016850628 -0.02153641 -0.02045836
-0.0075910883 -0.04431946 -0.0023253695 -0.038531095 -0.046597786 0.049792226 0.008815557 -0.008766499
0.07115762 0.063035764 0.0064810677 -0.0714543 0.013722569 0.016837513 0.0067256535 -0.11103284
0.012047688 -0.0055471323 -0.004161162 0.028202496 0.10419824 0.037583645 -0.03454954 -0.065226346
-0.0060711238 0.010079396 0.027891055 -0.013541624 0.0035335391 -0.05638448 0.0036576123 0.042744122
-0.043571927 -0.12093917 0.009465964 0.019133335 -0.025291052 0.006862894 0.03915219 -0.013963401
0.0350351 0.059463702 0.0002305342 -0.05762397 0.032112073 0.035946257 0.023729507 -0.0339838
0.053315308 -0.007871576 -0.005008915 0.017400747 -0.018617345 0.044610534 -0.09948088 -0.019320907
0.021714477 -0.024565054 0.038396325 -0.018837046 0.0020950555 -0.055527903 0.08421984 0.041193545
-0.0036881675 0.007416987 -0.025270315 0.01862422 0.006486399 0.049580503 -0.0030161687 -0.034365017
0.046079267 0.059849497 -0.016784532 -0.0048395623 -0.062451642 0.07443254 0.010185873 0.006780876
-0.036584657 -0.04618745 0.028213777 -0.05334743 0.03216872 -0.017087873 0.0119071985 0.019141966
-0.0042041237 -0.0873475 0.02278934 -0.061103925 -0.0851354 -0.025428709 -0.023435207 0.016299712
-0.03265737 0.04516432 -0.05597389 0.009847616 -0.0221029 -0.04145975 0.005639139 0.06882225
-0.07184496 -0.027420014 0.024794023 0.03126395 -0.021892466 0.014262488 -0.0205576 -0.028078621
0.004813853 0.034009315 -0.020371133 -0.024182778 -0.06719681 0.041608114 -0.04246634 -0.015350028
0.088625684 -0.019780608 -0.03078097 0.030186074 0.0007005356 -0.02810281 -0.020898938 0.04587964
-0.0019351086 0.021342522 0.023934342 0.011532118 -0.0003224495 0.06323259 -0.0482264 -0.044441033
-0.010017676 -0.0041193105 -0.05663167 -0.012057621 0.008541506 -0.062430322 -0.007060806 0.02771053
-0.028421292 -0.03580657 -0.013833724 0.016332775 -0.03005046 -0.023897689 -0.04331019 -0.02901161
0.0006573389 -0.027777562 0.032552145 -0.05813102 0.03333294 -0.010605828 0.045252733 0.014320891
0.013931299 0.04280785 -0.012988411 -0.0064998637 -0.0034240852 -0.100868456 0.023573337 0.012673358
-0.053779796 -0.013372247 0.05307134 0.048171557 0.0024319415 -0.02959018 0.035467844 -0.0079643065
00000000: fa56 3d3d d3ca 193d ec3d 3a3d b3a6 0ebd
00000010: 99f8 faba 59e7 523b b5f8 9bbb 32fd 34bd
00000020: 4b94 513d b5bd 8f3d 25f3 15bd 0cdc af3b
00000030: 6c99 193c 467f 5d3d 993b 763b 6906 8f3d
00000040: ce4e e93c ffc3 70bd 4ec2 413c 3800 92bd
00000050: fff0 b03c 659c 0b3d 0530 d23a 778e 51bc
00000060: ee02 56bd 83b2 0ebd d12d 03bd 2bb0 493c
00000070: d95e 1bbd 5ee4 6ebb 3d1b 373d 19f7 323b
00000080: 0926 8d3c cfe3 833c abeb ddbc b128 94bd
00000090: d030 b6bc 0e10 3fbd 9410 20bc 3171 b43c
000000a0: ed35 723c 112b 1dbc c02e 8ebc 5fd2 39bd
000000b0: 6917 983c 815f 8a3c b9b9 fb3c 12f3 32bd
000000c0: 54d8 4cbd 86eb ca3c e04a 163c fbc4 c4bc
000000d0: 05cb 013c 5bbc a9bd 816c f13c 6397 353c
000000e0: 4041 8fbc d9d5 51bb 4590 213d cfe1 41bc
000000f0: 059c b23c 0f21 e73c 6a1c 92bc 4ae7 ebbc
00000100: a98e b2bc d936 303d 9781 6abc 0849 50bd
00000110: 8487 96bd 8495 dbbb b048 63b9 fdf1 c4bd
00000120: da68 a1bb d4b3 75bc 57bf 343c 695b fbbc
00000130: f89e 8dbc 540a 8abc 206d b0bc 4a98 a7bc
00000140: aabe f8bb 5288 35bd 3a65 18bb c8d2 1dbd
00000150: 52dd 3ebd eff2 4b3d 206f 103c 5da1 0fbc
00000160: 16bb 913d e518 813d 235f d43b a256 92bd
00000170: a0d4 603c d3ee 893c df62 dc3b 3065 e3bd
00000180: aa63 453c b8c4 b5bb 5b5a 88bb ec08 e73c
00000190: e365 d53d 4ff1 193d d283 0dbd 6495 85bd
000001a0: 47f0 c6bb 0d24 253c c87b e43c b0dd 5dbc
000001b0: f392 673b 6af3 66bd 8db4 6f3b 7614 2f3d
000001c0: 7a78 32bd f5ae f7bd 2117 1b3c 83bd 9c3c
000001d0: 2e2f cfbc 21e2 e03b 0c5e 203d c0c6 64bc
000001e0: f780 0f3d 3690 733d 8ebb 7139 1d07 6cbd
000001f0: f387 033d 623c 133d 6264 c23c 9932 0bbd
00000200: 2761 5a3d c8f7 00bc d321 a4bb 038c 8e3c
00000210: 6783 98bc 89b9 363d a2bc cbbd e146 9ebc
00000220: 8fe2 b13c a73c c9bc 7745 1d3d 2650 9abc
00000230: 334d 093b 3a71 63bd 747b ac3d 90ba 283d
00000240: 2fb5 71bb 320a f33b b103 cfbc d291 983c
00000250: dc8b d43b ed14 4b3d eaaa 45bb 55c2 0cbd
00000260: 9dbd 3c3d bf24 753d b77f 89bc 3195 9ebb
00000270: 4bcd 7fbd 1670 983d a6e2 263c 1c32 de3b
00000280: cbd9 15bd 0d2f 3dbd 9420 e73c d682 5abd
00000290: 59c3 033d defb 8bbc 6916 433c 9dcf 9c3c
000002a0: bfc2 89bb 3fe3 b2bd b6b0 ba3c 1c48 7abd
000002b0: 785b aebd de4f d0bc 31fb bfbc f986 853c
000002c0: bcc3 05bd 39fe 383d e144 65bd e557 213c
000002d0: 2411 b5bc b3d1 29bd 87c8 b83b aef2 8c3d
000002e0: 7323 93bd f09f e0bc d61c cb3c a10e 003d
000002f0: d457 b3bc 36ad 693c 6968 a8bc 2305 e6bc
00000300: 87bd 9d3b 5a4d 0b3d 5de1 a6bc f61a c6bc
00000310: 7b9e 89bd 456d 2a3d 2ff1 2dbd af7e 7bbc
00000320: 6281 b53d f10a a2bc 5f28 fcbc c948 f73c
00000330: 26a4 373a dd37 e6bc 4034 abbc 4aec 3b3d
00000340: 78a3 fdba 83d6 ae3c f411 c43c 35f1 3c3c
00000350: 700e a9b9 1780 813d 0c89 45bd cd07 36bd
00000360: 2e21 24bc 48fb 86bb 9cf6 67bd 548d 45bc
00000370: acf1 0b3c f0b6 7fbd 555e e7bb 3201 e33c
00000380: c5d3 e8bc e9a9 12bd d8a6 62bc 50cc 853c
00000390: 622c f6bc 16c5 c3bc 0766 31bd c2a9 edbc
000003a0: 4451 2c3a c58d e3bc 6655 053d cb1a 6ebd
000003b0: 1f88 083d 11c4 2dbc ee5a 393d 2ca2 6a3c
000003c0: 1a40 643c 4957 2f3d 58cd 54bc cffc d4bb
000003d0: 9e66 60bb 1f94 cebd df1c c13c eba3 4f3c
000003e0: 3448 5cbd 4517 5bbc 5561 593d 8a4f 453d
000003f0: 3561 1f3b 1b67 f2bc bb46 113d b97c 02bc

fc.bias f4 [10]
-0.02999883 0.0066118725 0.008559999 0.016476618 -0.027550895 0.010956733 0.015558246 0.033829805
-0.022771792 -0.013185868
00000000: 1bc0 f5bc 68a8 d83b 3d3f 0c3c f9f9 863c
00000010: 6ab2 e1bc de83 333c 03e8 7e3c 1f91 0a3d
00000020: e98b babc 8a09 58bc
